models/ann_model.pth (torch, 70268 bytes, 26 tensors)

model.0.weight f4 [128, 22]
000000 87 09 86 bd 53 dd 05 bd 76 f9 14 be eb 86 d6 be
       -0.06544786 -0.032681774 -0.14548287 -0.4189981
000010 5c ab 09 3e 47 50 99 bd f2 56 1c bf cd 9c ae 3c
       0.13444275 -0.07486015 -0.6107017 0.021315003
000020 ae 66 f4 bd 74 ae 1a bd 5f b0 bc bd 05 8c 8a 3e
       -0.11933647 -0.037764028 -0.092133276 0.2705995
000030 2d 10 79 3e 4f 9b ce 3e 5f 3b fb bd be 90 c3 bd
       0.24322577 0.40352866 -0.122671835 -0.09549092
000040 b8 16 5f 3e 5d 3f 7f 3b 5e 4b 1b bf 16 6b 19 be
       0.2178601 0.003894768 -0.60661876 -0.14982256
000050 25 f9 28 3e 00 e5 b8 be 6b 5b c2 bb 52 60 89 be
       0.16501291 -0.36112213 -0.005931308 -0.268313
000060 d6 18 6d 3d 47 9e c4 be 2b 7d 19 3d 69 e7 de bd
       0.057885014 -0.38402006 0.037472885 -0.10883982
000070 8e f6 d2 3e c5 b5 11 3d 5c 59 2d bd cb 05 ef 3d
       0.4120373 0.03557374 -0.042321548 0.11671027
000080 b0 2e ef 3b 0b e5 fc 3d 4b 12 c4 be 1f 18 3f 3e
       0.0072992668 0.12348374 -0.38295206 0.18661545
000090 db 1f b6 bd bd 11 57 3e 57 e5 cc be 10 b8 6e 3d
       -0.08892795 0.2100286 -0.40018722 0.058281004
0000a0 0e bd 47 bc d6 69 d2 bd 66 eb 8d 3d 2a 7c dc 3c
       -0.01219107 -0.10274093 0.06929664 0.026914675
0000b0 79 91 8d bc 69 c7 3a 3d 23 7d 49 bd 77 b9 04 3d
       -0.01728128 0.04560033 -0.049191605 0.032403436
0000c0 68 c7 18 be b7 d7 72 3b d6 3b 9d 3f 3f 3b cb bc
       -0.14919817 0.0037054846 1.2283885 -0.024808524
0000d0 12 52 1b 3d 83 75 eb 3c 5e 57 6e bd eb 2c 1b be
       0.037920065 0.028742557 -0.05818879 -0.15153854
0000e0 2c 59 83 3b 9f 2b 0b 3b 81 bb 90 bc b8 9b 6c bd
       0.004008433 0.0021235717 -0.017667534 -0.057765692
0000f0 c4 13 37 bb 85 8c 35 bd ab 81 e9 bd 74 80 8f ba
       -0.0027935365 -0.044323463 -0.11401685 -0.0010948316
000100 dd 67 73 3c f5 c3 d9 ba 44 2b 83 3d b9 3b b6 3e
       0.014856306 -0.0016614186 0.06404737 0.3559244
000110 0c ab aa be c6 61 94 3e cb 8d 8b 3d 96 3e 4d bf
       -0.33333623 0.28980845 0.06814154 -0.80173624
000120 db 3f c7 be 47 8e 2d be 26 37 ea bd 59 37 6d 3e
       -0.38915905 -0.16948806 -0.114363 0.23165645
000130 3b 43 c2 3d 59 d2 12 3e 90 da 71 3e cc fc ae be
       0.094854794 0.14338054 0.23618531 -0.34177244
000140 31 65 69 bc 93 ea 92 3c 23 50 8e 3d dc 04 c0 3b
       -0.014245317 0.01793412 0.069488786 0.0058599543
000150 09 07 88 bd f1 70 91 bd 29 f8 82 bd 6b e4 da 3d
       -0.06641967 -0.0710162 -0.06394989 0.106880985
000160 8a 4e 8e 3c f7 c0 94 3d 55 16 2d bc 03 01 32 bf
       0.017371435 0.072633676 -0.010564406 -0.69532794
000170 79 5b 98 bd 64 ae 08 3c cd 47 ad 3c cb 8d da bc
       -0.07439322 0.008342359 0.021152401 -0.02667894
000180 14 57 12 bd f7 3b da 3c 7a e6 54 bb 3d 6a 91 bd
       -0.035727575 0.026639922 -0.0032486008 -0.071003415
000190 76 0f e3 3d 92 03 a2 bc ea ad ca 3d f7 d4 8a 3d
       0.11086933 -0.019777093 0.09896453 0.06778901
0001a0 62 fa 9a 3f 66 7c 95 3d 72 f8 be 3e 49 18 5a bd
       1.2107661 0.07299118 0.37298924 -0.053245816
0001b0 77 c8 8b 3d bc 4c 8b bc 23 23 06 3c 1e 84 b8 be
       0.06825345 -0.017004363 0.008187088 -0.36038297
0001c0 3f 67 9a 3d e2 e9 d2 be 3a 74 c2 3c 5b 54 84 be
       0.07539224 -0.41194063 0.023737062 -0.25845608
0001d0 1f ed e1 3e 2b 00 74 bd 0f 4e 9f 3c 71 1e 23 3d
       0.44126222 -0.059570473 0.0194464 0.039823953
0001e0 30 fc b8 bd 64 8d f7 be cc 89 87 3e 3e 4e fe bd
       -0.09032476 -0.4835006 0.26472318 -0.12417267
0001f0 3c 76 08 3d d1 07 55 bc 0f 08 d0 be 4a b6 c9 bc
       0.033315882 -0.013002352 -0.40631148 -0.024623055
000200 6e 19 b0 3e 2a 82 78 bd 39 f1 c6 3e 34 8b fc be
       0.343944 -0.06067101 0.38855913 -0.49324954
000210 12 0e da 3c 73 70 db bd 21 75 8e bc 17 4e e5 bb
       0.026618037 -0.10714807 -0.017389836 -0.0069978344
000220 71 ac 15 be 28 31 bf bc 3e bc bc bf 9e 4b 0b bd
       -0.14616562 -0.02333887 -1.4744947 -0.03400766
000230 f3 b8 00 3d 5e 83 d6 bd 4f d8 5b 3c d7 0b 8e bd
       0.03142638 -0.10474275 0.013418271 -0.06935852
000240 0c 59 c0 3d 63 7e a8 3c af 37 d1 bc c9 30 1f bc
       0.09391984 0.020568078 -0.025539247 -0.009716221
000250 ae 1b 51 3d 97 3d ba bc b6 1f 1b 3d 92 d5 16 3d
       0.051051788 -0.022734446 0.03787204 0.03682477
000260 e6 23 89 bd 03 85 9b 3d 90 08 10 bd 95 76 7d 3e
       -0.066963 0.07593729 -0.035164416 0.24752267
000270 4d d9 ff bc 65 5f e5 3e a6 a2 06 3c 87 c8 80 3d
       -0.031231547 0.44799343 0.008217489 0.062882476
000280 73 15 79 3f 6a 03 cd bd d3 35 1b bd e6 d8 ad 3c
       0.97298354 -0.10010417 -0.037893128 0.02122159
000290 e7 2e 1a bd f4 d0 66 3d 22 69 49 bb eb 5e e6 3c
       -0.037642386 0.056351617 -0.003073283 0.028121432
0002a0 c9 be a2 3d 74 03 19 bd 13 a7 82 3d 93 24 8b 3d
       0.07946546 -0.03735681 0.06379523 0.06794085
0002b0 b9 f2 0d be 5e 77 f0 3b 1e b5 29 bd 5c e1 2f 3d
       -0.13862123 0.0073384484 -0.041432492 0.04293953
0002c0 a6 0b 2f bb 2d bc b7 be 83 c7 bf bd dc f6 cd be
       -0.0026709824 -0.35885754 -0.09364226 -0.402274
0002d0 9b fe 89 bd 41 93 80 be 37 01 f3 3d 71 e1 02 bd
       -0.06738015 -0.25112346 0.11865466 -0.03195328
0002e0 40 d6 d7 3c 85 bd ad 3d 0d 60 2a bd b2 a2 97 3f
       0.02634728 0.084834136 -0.041595507 1.1846526
0002f0 8b ee c4 3e ba 70 8f be 01 9d 87 3e a6 b1 96 3b
       0.38463244 -0.2801569 0.26486972 0.004598814
000300 2e 0e d1 bd 99 7c 43 3c 1c 7c f7 bc 78 ca 32 bd
       -0.10207783 0.011931562 -0.030210547 -0.04365012
000310 46 98 3e be 25 0f 20 3d ca bf 34 bc 97 92 81 bd
       -0.18612775 0.039076943 -0.011032054 -0.06326788
000320 2a 99 c4 bb 54 6c c7 be a8 07 86 bf 47 a2 8f 3c
       -0.005999704 -0.38949835 -1.0471087 0.017533435
000330 32 b3 2f bf dd 89 fa 3d d1 cc 66 3d 21 91 f7 bd
       -0.68632805 0.122333266 0.056347672 -0.12088228
000340 43 13 db 3c 13 8d 91 be 61 11 57 3e 92 4b df 3e
       0.026742583 -0.28427944 0.21002723 0.43612343
000350 75 99 82 bb e5 d2 8f 3d 1a 05 ae 3e 40 3d c5 3c
       -0.0039855787 0.07022647 0.33988267 0.024077058
000360 d5 1c d9 bd 6f 8c 0b 3d f7 9f 3a 3e b4 b0 b3 be
       -0.106012024 0.034069475 0.18225084 -0.3509575
000370 d6 f2 84 bd d5 d5 b1 be bd c1 95 be 05 3d dd be
       -0.0649163 -0.34733453 -0.29249373 -0.43210617
000380 51 a7 da 3d 3a 57 d3 bd 1a 85 68 be 4d da 1c bd
       0.10676444 -0.103193715 -0.22707024 -0.038294125
000390 25 a2 45 3c e5 40 5d 3d 0d 43 72 3d 76 04 8a 3f
       0.012062584 0.054016966 0.059145976 1.0782611
0003a0 1e a2 a4 3e 0b 0f 1a 3e 25 7a 1f bc 35 6d 3d 3d
       0.32154936 0.15044801 -0.009733711 0.046246726
0003b0 77 b6 0c 3e 6c 7d 00 be 25 8d f0 be 85 80 51 be
       0.1374148 -0.12547845 -0.46982685 -0.20459183
0003c0 f0 ce 8c be 99 27 cb 3d d3 2d 06 3d 4c a3 ed 3d
       -0.2750163 0.09919662 0.032758545 0.11603412
0003d0 17 4e 14 3d d3 d3 60 3e d5 37 ff 3d 7a a9 8f bd
       0.036207285 0.21955805 0.12461821 -0.07014747
0003e0 00 e8 85 bc 3f a8 2b be 23 2a 0b bc 54 fe 95 3d
       -0.016345978 -0.167634 -0.008493933 0.073239
0003f0 8c cc bc bd 7e 7b c8 3d f3 2b 7a bc 61 9c 92 3d
       -0.09218702 0.09789179 -0.015269267 0.07158733

model.0.bias f4 [128]
000000 3c 13 0c bd cb af 87 bd 4e 78 1c 3e 50 4b 07 3e
       -0.03419803 -0.06625327 0.15280268 0.13212323
000010 ca 7e be 3d 51 bf b1 3d 9e 63 fd bd 04 2f c0 3d
       0.09301527 0.08679069 -0.12372516 0.093839675
000020 79 99 ea 3d c8 02 ee 3d 4a 73 37 be 92 69 3e 3e
       0.11455054 0.11621624 -0.17915073 0.1859496
000030 26 1e 14 3e 16 1c 0b 3e 3f d8 2f bb 85 21 29 3e
       0.14464626 0.13584933 -0.0026831774 0.16516693
000040 1f b3 7f bb c4 cf 18 be 73 bd ae bb 02 ee 61 bc
       -0.0039016677 -0.14923006 -0.0053326427 -0.013789656
000050 27 38 2c be f0 3e a7 3c 47 cf 37 be 13 bd d9 bd
       -0.16818295 0.020415753 -0.17950164 -0.10631766
000060 53 92 b5 bd 54 74 56 be 13 29 a2 bc eb f3 55 be
       -0.088658 -0.20942813 -0.019794976 -0.20893829
000070 ff 15 f6 3c 1a 86 54 be 70 65 07 be 08 ca 95 3d
       0.030039785 -0.2075428 -0.13222289 0.07313925
000080 f9 36 3e be 27 17 f1 3d e4 b9 04 bc 5b 64 eb bd
       -0.18575658 0.11771994 -0.00810096 -0.11493751
000090 80 7c fa 3d 89 93 83 bd 7a 51 a0 3d d9 02 fd 3d
       0.12230778 -0.064246245 0.078280404 0.12354059
0000a0 d4 7a ec bd 07 85 3f 3e 03 8f d1 bd 4b cb 50 3e
       -0.11546865 0.1870309 -0.102323554 0.2039005
0000b0 b2 a2 e0 3c a0 ea 0b be 93 44 85 3d 5a 27 47 3e
       0.02742133 -0.13663721 0.0650722 0.19448605
0000c0 1d a7 ec bd 6c 47 48 3e 1e b9 2a bd 13 64 d4 3d
       -0.11555312 0.19558495 -0.041680448 0.1037065
0000d0 fb e0 55 3e ef e7 65 3d dc 74 10 3e 2d da 33 be
       0.20886604 0.056129392 0.14107078 -0.17563696
0000e0 67 ee da 3d da 32 90 3d 2c 7d 2d 3e b0 a5 08 3e
       0.10690003 0.07040949 0.1694228 0.13344455
0000f0 ba 65 97 3c 21 41 c5 bd 84 57 90 bd 87 3c af 3c
       0.018481124 -0.09631563 -0.07047942 0.021391166
000100 3c 55 79 bd f4 8c 55 3e ae 12 03 be ec 35 25 3e
       -0.0608723 0.2085455 -0.12800094 0.16133851
000110 54 45 ab 3d c6 d2 05 3e 2d cb 42 3e e2 88 f0 3d
       0.08362833 0.13068685 0.19022818 0.11744858
000120 1f 44 98 bd 58 9f 1c be 59 55 15 3b 0d f8 45 bd
       -0.07434868 -0.1529516 0.0022786467 -0.048332263
000130 7a 74 f2 3c 96 ba 03 3e 63 ef 78 3d 58 9d 0d 3e
       0.029596556 0.12864146 0.060775172 0.13829553
000140 42 09 12 3e 4b cd 54 3e 20 1d 12 3c 44 9c b7 bd
       0.14261344 0.20781438 0.008918077 -0.08965352
000150 0f b4 7b bd 9c fb fe bd 2a 15 f9 bd fb 00 c1 bd
       -0.061451014 -0.124503344 -0.1216224 -0.09424015
000160 6d 6d 22 be 04 5b 47 3e a9 cb 54 3e f5 89 b2 bd
       -0.15862055 0.19468313 0.20780815 -0.087177195
000170 79 e3 0c 3e d2 93 4a 3e 19 f0 70 bc 40 a3 8d bd
       0.13758649 0.19782951 -0.014705681 -0.06915903
000180 43 50 1b 3d 37 c5 13 bd b7 e2 74 3d 0f 4a 45 be
       0.03791834 -0.03607675 0.059786525 -0.19266532
000190 97 0c 44 3e ef c1 c6 3c 70 af a6 3d af a9 49 be
       0.19145428 0.024262397 0.08138931 -0.19693635
0001a0 3b 0e 4f be 63 f0 44 bd 0f 52 3b be 4c 0f 73 3b
       -0.20220272 -0.048080813 -0.18293022 0.0037087975
0001b0 e1 fe 16 3d 2b 44 15 3e ff 37 b5 3d 89 d5 2d be
       0.036864165 0.14576785 0.08848571 -0.16975988
0001c0 39 d8 25 be 4c 9f 8c 3d fe 28 a7 bd 84 2c e2 3d
       -0.16195764 0.06866321 -0.081621155 0.11043647
0001d0 7d 7c ab 3d 9b cb 40 3e f4 f8 24 bd f6 8e 9c 3d
       0.08373354 0.1882767 -0.040276483 0.07644455
0001e0 0a 8e a9 bc ed 2f 57 3d f2 f1 d5 bd 31 94 bd 3d
       -0.020697612 0.05253594 -0.10446538 0.09256781
0001f0 b2 50 8f 3d 0e 4e 21 3e f1 56 28 be 8b 98 c3 3c
       0.06997813 0.15752432 -0.16439416 0.02387645

model.1.weight f4 [128]
000000 98 79 34 3f 2e 28 f6 3e e3 26 6b 3f ef 45 3d 3f
       0.7049804 0.4807753 0.9185621 0.73934835
000010 56 ce 75 3f 21 36 17 3f 1d de 6d 3f 28 20 83 3f
       0.9601797 0.5906697 0.9291704 1.0244188
000020 d1 ac 67 3f 14 3b 57 3f b7 88 70 3f 60 e5 70 3f
       0.9049807 0.8407452 0.9395861 0.941
000030 4c 64 3a 3f d4 b3 57 3f 42 fb 4c 3f 1a d1 1e 3f
       0.7280929 0.8425877 0.8007089 0.62037814
000040 74 92 d5 3e 50 69 20 3f be 24 34 3f b5 09 9d 3f
       0.41713297 0.62660694 0.70368564 1.2268587
000050 66 e6 19 3f e9 1c 78 3f 34 fb 74 3f 4d 96 1f 3f
       0.60117185 0.96919113 0.95695806 0.62338716
000060 fb 12 75 3f 11 53 73 3f 76 b8 7c 3f fd 01 7b 3f
       0.95732087 0.95048624 0.98718965 0.9804991
000070 79 94 89 3f 82 da 76 3f 21 45 23 3f 54 41 1b 3f
       1.0748435 0.96427166 0.6377736 0.6064656
000080 11 57 8e 3f 0b ce 61 3f 70 de 64 3f 60 1d 95 3f
       1.112032 0.8820502 0.8940191 1.164959
000090 40 d0 9a 3f 20 ee 54 3f 69 28 1a 3f 61 0b 78 3f
       1.2094803 0.8317585 0.6021791 0.9689236
0000a0 26 f0 3e 3f 15 de 4d 3f 00 dc 7d 3f 3d 92 11 3f
       0.7458519 0.80416995 0.9916382 0.56863767
0000b0 0a 53 49 3f a4 3c 43 3f 8a 5e 5b 3f b4 34 53 3f
       0.7864233 0.76264405 0.8569113 0.82502294
0000c0 66 f3 12 3f 1b ae 1e 3f 78 5c ce 3e ee 6c 46 3f
       0.57402647 0.61984414 0.40304923 0.77509964
0000d0 a8 a6 1e 3f a7 74 2d 3f ff 11 2c 3f a4 b0 33 3f
       0.6197305 0.6775612 0.6721496 0.7019141
0000e0 ac d5 35 3f 23 0f 3c 3f 22 83 56 3f f6 fa 1e 3f
       0.7102916 0.73460597 0.8379384 0.62101686
0000f0 98 c3 2f 3f d1 f7 70 3f 65 14 1e 3f 77 d4 66 3f
       0.6865783 0.9412814 0.6174987 0.90167946
000100 ce f4 2e 3f a9 d0 28 3f 48 b6 2a 3f 40 25 25 3f
       0.6834229 0.6594339 0.6668439 0.64509964
000110 9a ae 37 3f 4e 0f 2b 3f 0e d6 4d 3f f5 a1 16 3f
       0.71750796 0.6682023 0.80404747 0.58840877
000120 e5 77 25 3f ab 56 54 3f 02 74 95 3f d6 5f 41 3f
       0.6463607 0.82944745 1.1676028 0.7553686
000130 45 36 3b 3f 3b 65 82 3f c6 d0 42 3f d0 56 bd 3e
       0.73129684 1.0187143 0.76099813 0.36980295
000140 e3 a9 49 3f b9 40 3b 3f ff 79 51 3f bc 3f 48 3f
       0.7877485 0.73145634 0.81826776 0.7822225
000150 f7 05 17 3f 67 95 7b 3f 4f 60 26 3f f5 fc 1f 3f
       0.58993477 0.98274845 0.64990705 0.62495357
000160 bf 25 88 3f 40 2d 47 3f c1 9d 4c 3f b7 a5 e6 3e
       1.0636519 0.7780342 0.79928213 0.45048305
000170 89 50 71 3f e6 0f 4c 3f 40 ca 97 3e 58 5f 3e 3f
       0.9426351 0.7971176 0.29646492 0.74364233
000180 a9 9f 2f 3f 38 05 61 3f bf c6 04 3f 74 2e 31 3f
       0.68603 0.8789859 0.5186576 0.69211507
000190 22 bf 98 3f c3 a9 56 3f 31 7a 34 3f 2c 63 44 3f
       1.1933329 0.83852786 0.7049895 0.76713824
0001a0 41 c9 78 3f ad d1 20 3f 96 01 1b 3f ec 35 31 3f
       0.9718209 0.6281994 0.60549295 0.69222903
0001b0 1f 6d 63 3f 04 82 4c 3e e4 f9 50 3f b0 ec 36 3f
       0.8883838 0.19971472 0.816313 0.71454906
0001c0 5f c3 47 3f dd 6f 4d 3f 7b c7 d7 3e 94 8f 2c 3f
       0.7803249 0.80248815 0.4214438 0.6740658
0001d0 ca f3 3b 3f e9 5b eb 3e 1c 48 f5 3e ca 2b 0e 3f
       0.7341887 0.4596856 0.47906578 0.55535567
0001e0 bb 23 71 3f 23 d9 55 3f a0 72 7a 3f 4d b2 6f 3f
       0.94195145 0.8353445 0.97831154 0.9363144
0001f0 7d ec 80 3f 45 85 60 3f ed 90 4a 3f 89 5c 43 3f
       1.007217 0.87703353 0.7912739 0.7631307

model.1.bias f4 [128]
000000 5a 7e 27 bf ea aa 11 bf d7 d6 11 bf c8 a4 ef be
       -0.6542717 -0.5690142 -0.56968445 -0.46805406
000010 f8 c2 ef be 7b fc 91 bf 91 9c a1 bf 0f 14 9b bf
       -0.46828437 -1.1405176 -1.2625905 -1.2115496
000020 8a b1 51 bf 8b 0f 10 bf d2 2c 95 bf ef 0b 9b be
       -0.8191153 -0.56273717 -1.1654303 -0.30282542
000030 5d 52 b3 be af d4 7b bf 62 a6 53 bf 64 a7 23 bf
       -0.35023776 -0.98371404 -0.82675755 -0.6392729
000040 41 ad ce be c6 0c 67 bf f2 8b d0 be c3 4f 6b bf
       -0.40366557 -0.90253866 -0.4073177 -0.9191858
000050 e3 cf 81 be 27 03 07 bf 91 cd c5 be 6d 2b 39 bf
       -0.25353917 -0.52739185 -0.38633397 -0.7233189
000060 58 1c 9e bf cd 2b c2 bf e2 36 87 bf 7a a1 29 bf
       -1.23524 -1.5169617 -1.0563624 -0.6626202
000070 4a 17 7c bf 47 11 6a bf 11 5b e1 bd da 85 36 bf
       -0.98473036 -0.91432613 -0.11003698 -0.7129799
000080 da 1f 6c bf 28 1a b6 bf 9f cf 47 be 96 e0 14 bf
       -0.922361 -1.4226732 -0.19512795 -0.5815519
000090 7f f8 92 bf 0d a0 78 bf 83 32 35 bf f0 02 63 bf
       -1.1482085 -0.9711922 -0.707802 -0.8867636
0000a0 6b 77 39 bf 7c 50 38 bf e4 11 88 bf a5 f5 d0 be
       -0.7244784 -0.7199781 -1.063046 -0.40812412
0000b0 8f cf 3a bf 62 0f 96 be 74 21 ae bf 40 9c 8c bf
       -0.7297296 -0.2930861 -1.3603959 -1.0985184
0000c0 63 db 2c bf e4 98 44 bf 03 ae 81 be 38 65 f3 be
       -0.6752226 -0.7679579 -0.25328073 -0.4753816
0000d0 6d 8e 33 bf 08 3e 50 bf c1 9f 1d bf 93 8f 20 bf
       -0.701392 -0.8134465 -0.6157189 -0.62719077
0000e0 83 82 3e bf 5c f0 e3 be 9a 41 13 bf 1f 06 d4 be
       -0.74417895 -0.44519317 -0.57521975 -0.4141092
0000f0 a5 46 73 bf 50 de 60 bf 63 ca c0 be 5e a2 53 bf
       -0.9502967 -0.8783922 -0.3765441 -0.8266963
000100 c5 9c 38 bf 32 b9 07 bf 54 1b 44 bf cb 1b e2 be
       -0.7211421 -0.5301696 -0.766042 -0.4416183
000110 61 69 24 bf a4 53 4f bf 56 0c 27 bf 01 0d 3e bf
       -0.64223295 -0.80987 -0.652532 -0.7423859
000120 e5 30 87 be 3f 6a 88 bf 02 90 2d bf 99 e9 6b be
       -0.2640449 -1.0657424 -0.67797863 -0.23038329
000130 7f 4d 4e bf a6 14 30 bf e5 fb 35 bf 59 a5 9d be
       -0.80587 -0.68781507 -0.71087486 -0.30790213
000140 fd c8 8a bf 65 63 6d bf 37 7b 25 bf e3 bf 47 bf
       -1.0842587 -0.9272979 -0.64641136 -0.7802717
000150 f3 d5 b8 be f9 5f 3c bf 6d 2f 69 bf 55 f7 67 bf
       -0.3610073 -0.7358394 -0.9108799 -0.90611774
000160 1f 9e 28 bf d9 d7 4b bf 0f 06 59 bf 9f 08 ca be
       -0.65866274 -0.7962623 -0.8477487 -0.39459702
000170 e9 9e c7 bf e8 2a 24 be d5 3f ee bd 54 18 41 bf
       -1.559537 -0.16031992 -0.11633269 -0.75427747
000180 a9 af 63 bf ff 8d 95 bf e7 e1 e1 be c8 ae 62 bf
       -0.8893991 -1.1683959 -0.44117662 -0.88547945
000190 42 ac a5 bf b5 31 22 be 36 d9 d8 be 75 1e df be
       -1.2943194 -0.15839274 -0.4235322 -0.43577924
0001a0 a2 35 6e bf de 0c 84 bf b3 3a a6 be bd c7 30 bf
       -0.9305059 -1.0316427 -0.3246666 -0.69054776
0001b0 ea 7b b7 bf e9 07 22 3c a4 71 5e bf 06 ed 6b bf
       -1.433469 0.009889581 -0.8689215 -0.92158544
0001c0 99 af 4f bf 68 0c 09 bf 6c a1 af be 40 04 29 bf
       -0.81127316 -0.53534555 -0.34302843 -0.6602211
0001d0 fa 29 40 bf 90 65 46 be d8 c8 4f be 6a 00 44 bf
       -0.7506405 -0.1937468 -0.2029146 -0.7656313
0001e0 ea 17 c9 bf 78 49 83 bf 79 25 25 bf 2c 95 41 bf
       -1.5710423 -1.0256796 -0.64510304 -0.75618243
0001f0 51 07 1a bf 60 02 22 bf 84 82 55 bf 7c 86 84 bf
       -0.60167414 -0.63284874 -0.83402276 -1.0353541

model.1.running_mean f4 [128]
000000 03 2a 09 bd 7c 3f 8a bd e9 ef 1a 3e 4e 59 09 3e
       -0.03348733 -0.0675039 0.15130581 0.13412973
000010 38 83 bb 3d 85 ff ad 3d 8a c3 f8 bd b5 1e bf 3d
       0.09155887 0.08496002 -0.12146671 0.09332029
000020 3c d0 ea 3d 58 20 ee 3d 40 fc 36 be 13 26 3d 3e
       0.11465499 0.11627263 -0.17869663 0.18471555
000030 7d e5 11 3e ed 6e 0d 3e 0b 13 9a ba 5d 69 2a 3e
       0.14247699 0.13811846 -0.0011754943 0.16641755
000040 e1 e7 c7 bb cd 4c 16 be eb 0d f3 bb f1 27 89 bc
       -0.00610064 -0.14677735 -0.0074174306 -0.016742678
000050 e0 03 2b be b2 3c a8 3c eb d5 35 be e2 fa d8 bd
       -0.16700697 0.020536754 -0.17757384 -0.10594727
000060 04 12 b2 bd 62 a2 53 be 87 d9 a5 bc cf 1b 56 be
       -0.086948425 -0.20667413 -0.020245327 -0.20909046
000070 54 6e ed 3c be ac 55 be 0d b4 05 be 27 ee 96 3d
       0.028983273 -0.20866677 -0.13056965 0.07369643
000080 fa 2f 41 be b5 70 f5 3d 71 fa 10 bc 19 bc e4 bd
       -0.18865958 0.11984388 -0.008848772 -0.11168689
000090 99 f6 ff 3d dd fe 80 bd 9b 8c 9f 3d 63 5a fa 3d
       0.12498207 -0.06298611 0.0779049 0.12224271
0000a0 26 30 f1 bd e3 d8 3c 3e b6 c0 d3 bd d4 f9 4f 3e
       -0.11776762 0.1844211 -0.10339491 0.20310146
0000b0 16 b6 ef 3c f2 dd 0c be be ed 8a 3d ab cf 49 3e
       0.02926163 -0.1375654 0.06783627 0.19708125
0000c0 ac b0 ed bd c8 4d 49 3e 75 69 36 bd b4 f0 d4 3d
       -0.11605963 0.19658577 -0.044534165 0.10397473
0000d0 ea 9a 54 3e 69 be 69 3d a1 20 12 3e 61 8e 36 be
       0.2076222 0.057066355 0.1427026 -0.1782775
0000e0 cd 73 d3 3d 0f f8 8e 3d 1a f8 30 3e c8 d8 07 3e
       0.103248216 0.06980907 0.17282143 0.13266289
0000f0 94 57 98 3c 3b 8c c7 bd f0 cf 8b bd fb be c2 3c
       0.018596448 -0.09743544 -0.0682677 0.023772707
000100 85 bb 6e bd db 59 56 3e 22 1c 05 be a8 c5 24 3e
       -0.0582843 0.20932715 -0.12999013 0.16091025
000110 3c 77 ae 3d 47 6d 05 3e ec 05 43 3e ad 73 f5 3d
       0.08518836 0.13029967 0.19045228 0.11984954
000120 55 54 96 bd 32 f4 1f be 82 7c d2 3a 62 d1 44 bd
       -0.07340304 -0.15620497 0.0016058835 -0.048051246
000130 3e 4d fb 3c f7 d4 02 3e cd b1 7a 3d 78 06 0d 3e
       0.03067648 0.12776552 0.06120472 0.13771999
000140 dc 56 0f 3e 56 1d 51 3e 37 1d 15 3c 18 7a bd bd
       0.13997978 0.20421347 0.009101204 -0.09251803
000150 47 ef 7d bd d5 36 00 be f8 24 f9 bd 47 48 c1 bd
       -0.06199577 -0.12520917 -0.12165254 -0.09437614
000160 df c0 1e be 09 4b 49 3e fd fe 52 3e 5b fa b3 bd
       -0.15503262 0.1965753 0.20605083 -0.08787986
000170 01 4a 10 3e 76 62 4a 3e dd 26 60 bc ea a7 8d bd
       0.1409073 0.19764122 -0.013681141 -0.06916793
000180 77 95 1f 3d 0b 38 1d bd 6b ce 6e 3d 44 ce 43 be
       0.0389609 -0.038383525 0.058302324 -0.19121653
000190 36 07 43 3e aa fb e0 3c a4 74 a3 3d 2d b1 48 be
       0.1904572 0.027463753 0.07981232 -0.19598837
0001a0 57 dc 4f be 93 cb 48 bd 1a 8b 3e be a9 3f bd 3b
       -0.20298897 -0.04902227 -0.1860775 0.005775411
0001b0 16 c5 21 3d 7c 56 14 3e 4e 86 ac 3d 57 02 2d be
       0.039494596 0.14486116 0.08424054 -0.16895424
0001c0 c6 df 25 be 99 13 8b 3d 40 22 a8 bd 7e c6 e2 3d
       -0.16198644 0.06790847 -0.08209658 0.11073016
0001d0 13 dd aa 3d 5e 51 3f 3e 9d 51 24 bd 29 56 9e 3d
       0.08342948 0.18683383 -0.040116895 0.077312775
0001e0 b6 e9 92 bc 9f 46 5d 3d 82 d3 d8 bd 32 e0 bb 3d
       -0.017933708 0.054022428 -0.10587217 0.09173621
0001f0 9f 77 8e 3d 39 54 21 3e 9f 19 2a be d0 04 c7 3c
       0.0695641 0.15754785 -0.16611336 0.024294287

model.1.running_var f4 [128]
000000 70 60 6d 3f 6f 18 25 3f 45 cc b1 3f 8b 54 d2 3f
       0.92725277 0.6449041 1.3890463 1.643205
000010 44 9d 4b 40 39 01 05 3f c0 42 12 40 10 c4 7d 3f
       3.1814737 0.5195499 2.285324 0.9912729
000020 3b 73 1c 40 fd 88 31 40 ad 4f df 3f a0 50 07 40
       2.444533 2.773986 1.744619 2.114296
000030 b7 c7 9e 3f fe b1 0d 40 55 f7 a3 3f 9d 48 d0 3f
       1.2404698 2.2139888 1.2809855 1.627216
000040 ce 1a d4 3f 27 32 e3 3f 22 16 da 3f 09 9f 2f 40
       1.657068 1.774968 1.7038004 2.7440817
000050 42 76 ae 3f 1c 51 d5 3f 58 dd ab 3f 81 da 81 3f
       1.362984 1.6665378 1.3426924 1.0144807
000060 cd d0 da 3f 3f c8 e4 3f 90 c7 4b 3f 4a 91 3c 40
       1.7094971 1.787361 0.79601383 2.9463677
000070 08 ba c2 3f f3 e7 81 3f 0d 4f 84 3f f9 3f 85 3f
       1.5213022 1.014891 1.0336624 1.0410148
000080 83 e0 f4 3f ef 94 ac 3f 50 f0 7c 3f 49 13 9b 3f
       1.9131016 1.3482951 0.9880419 1.211526
000090 66 66 ed 3f 67 ee d5 3f d7 58 4d 3f d7 bc af 3f
       1.8546875 1.671338 0.80213684 1.3729504
0000a0 57 9d 19 40 bd fa d8 3f 13 e1 c3 3f 1d 1b 66 3f
       2.4002283 1.6951519 1.5303062 0.8988512
0000b0 31 01 05 40 88 78 70 40 67 91 0d 40 e8 cb b7 3f
       2.0781977 3.7573566 2.2119997 1.4359102
0000c0 87 aa 35 3f da ca 21 40 f4 67 cc 3f f7 69 41 3f
       0.7096333 2.528006 1.5969224 0.75552315
0000d0 a0 e9 67 3f 69 16 6b 3f 9f b1 44 3f c9 49 92 3f
       0.9059086 0.9183107 0.7683353 1.1428767
0000e0 05 9e c2 3f 7f ee ae 3f 73 84 12 40 11 4a 8e 3f
       1.5204474 1.3666533 2.289334 1.1116353
0000f0 42 46 8a 3f 21 86 70 3f 84 a0 52 3f 0f e3 9c 3f
       1.0802691 0.93954664 0.8227618 1.2256793
000100 1c 94 2b 40 25 56 8f 3f ce 65 d8 3f 38 a3 21 40
       2.6809149 1.1198164 1.6906068 2.525587
000110 e9 0b c3 3f be 19 7c 3f 90 3f 94 3f a2 61 71 40
       1.523801 0.9847678 1.1581898 3.771584
000120 bb ef 37 3f fb 32 20 40 d4 3f 6a 3f 28 a8 eb 3f
       0.71850175 2.5031116 0.91503644 1.8410692
000130 e5 12 b6 3f 42 c7 85 40 bc ff cd 3f 2a 0b 45 3f
       1.4224516 4.1805735 1.6093669 0.7697016
000140 7d 9e be 3f d5 ad a0 3f 1d d5 e9 3f e9 00 ba 3f
       1.4892117 1.2553049 1.8268162 1.4531528
000150 df 0d b2 3f 33 68 de 3f 9b a5 9a 3f 70 be 1d 3f
       1.3910483 1.7375549 1.2081789 0.6161871
000160 0a 5f 9a 3f 61 ac 1f 40 ba 4b 92 3f 5c 24 e1 3f
       1.2060254 2.4948962 1.142936 1.7589221
000170 a6 65 47 40 89 8a 61 3f c2 48 c2 3f cc 9d b1 3f
       3.1155791 0.8810201 1.5178454 1.3876281
000180 e9 4b 89 3f fc 89 b6 3f 96 23 ac 3f d8 af b8 3f
       1.0726291 1.426086 1.344836 1.4428663
000190 84 d7 f2 3f d1 a0 77 3f 6e a7 50 3f 1f d5 30 3f
       1.897202 0.9672976 0.8150548 0.69075197
0001a0 dc 4a 06 40 20 21 a1 3f ac 55 5e 40 b9 bc 14 40
       2.098319 1.2588234 3.473979 2.3240187
0001b0 bf 62 03 40 8b b4 a1 3f 04 db 0a 40 cd 44 8c 3f
       2.052902 1.2633222 2.1696177 1.0958496
0001c0 9c 62 8f 3f fd ad 97 3f ad 83 37 3f e3 0a 74 3f
       1.1201968 1.1849972 0.71685296 0.9532911
0001d0 70 89 99 3f 36 26 2a 3f 78 c6 3f 3f b2 35 99 3f
       1.1995068 0.66464555 0.74912214 1.1969512
0001e0 14 74 04 40 41 8a 89 3f 25 5a 01 40 3c bd d3 3f
       2.0695848 1.0745317 2.021127 1.6542125
0001f0 57 fc c1 3f 85 e6 d2 3f b7 b0 d5 3f 05 79 ac 3f
       1.5155133 1.6476599 1.6694554 1.3474432

model.4.weight f4 [64, 128]
000000 61 19 6a 3d ec 56 26 3e 4e 80 fc be f3 13 dc bc
       0.05715311 0.16244096 -0.4931664 -0.026864981
000010 e6 bb f9 bb 22 62 e8 ba b1 73 98 bd 82 ad 67 be
       -0.007621276 -0.0017729441 -0.074439414 -0.22624782
000020 e2 24 77 3d b1 be 88 bc 5d 1c 28 3d f2 0f af be
       0.06033791 -0.016692491 0.041042674 -0.34191853
000030 da e0 15 be 2b c1 99 3e 68 69 02 be 70 ce 9b 3d
       -0.14636555 0.30030188 -0.12735522 0.07607734
000040 02 50 a8 be 23 f9 b5 bd 06 93 7e 3d 62 69 ef be
       -0.3287354 -0.0888541 0.06215193 -0.46760088
000050 bf a5 ca bc 1d 6a c0 bd 55 c9 2c 3e 0f b2 e3 bd
       -0.024737237 -0.093952395 0.16873677 -0.11117946
000060 7d 91 c5 be 71 03 cb bd e0 b7 71 bd e0 6a 84 bd
       -0.3858756 -0.09912766 -0.059013247 -0.06465697
000070 13 13 1a bf fb 45 ed be 71 f8 a5 3c 50 88 c2 3e
       -0.60185355 -0.46342453 0.020260068 0.37994623
000080 3b e2 91 be 2d 9e 2c be 3a 5d a5 3b 21 48 1b 3e
       -0.28492913 -0.16857214 0.005046514 0.15164234
000090 f4 26 5f bd dd b0 62 bd d4 80 6a 3b be b3 c9 3b
       -0.054480508 -0.05534445 0.0035782354 0.00615546
0000a0 34 ac de bd db 98 e0 3c 3c f3 04 3d f0 75 d7 3b
       -0.10872689 0.027416637 0.03245853 0.0065753385
0000b0 27 49 f8 3d af c1 d7 3c da 80 4b bd 3b dc 4f be
       0.12123328 0.026337473 -0.04968343 -0.20298855
0000c0 dc 8f 46 3e d7 5a 8d bd 8a ad f4 3c 4a 4c 66 bc
       0.19390815 -0.06902092 0.029867906 -0.014056275
0000d0 d4 d6 4d 3d ac 91 99 be e2 dc 86 be 17 7d 9c be
       0.050253704 -0.2999395 -0.26340395 -0.30564186
0000e0 5f ac 62 be f9 73 aa bd b0 9f 86 3d 5f 03 34 be
       -0.22136067 -0.08322901 0.06573427 -0.17579411
0000f0 a2 0f 55 3e ce 4c e3 be 14 84 0b bc f7 51 c2 3c
       0.20806745 -0.44394535 -0.008515377 0.023720725
000100 fe 12 8f 3c 61 d3 2d 3e 03 fe 15 3e ad 84 b4 bd
       0.01746511 0.16975166 0.14647679 -0.088143684
000110 78 94 61 bd d3 68 92 bb 86 16 0e 3d dd 95 52 bb
       -0.05507323 -0.0044680624 0.03468945 -0.0032132783
000120 ba b2 e8 3c e6 91 4d be de 4c 4f 3b 9b 09 a8 3d
       0.028405536 -0.20075187 0.003163151 0.08204957
000130 9e 8f 0c be 26 82 9e bc 36 09 3f bd 89 34 f0 bd
       -0.1372666 -0.019349169 -0.046639644 -0.1172877
000140 af 5b 01 be 5c f9 b3 bc 43 54 f2 3c 54 af da be
       -0.12632631 -0.02196949 0.029581195 -0.4271189
000150 db c9 27 3d fd 2b 78 3d b6 ed ba bd 91 8c 49 bd
       0.04096399 0.060588825 -0.09127371 -0.04920632
000160 6f b7 41 bd 08 a9 dc 3c 2f aa 90 3d d3 dd ab bc
       -0.047294077 0.02693607 0.0706371 -0.020979797
000170 3f 3e ef be 3d c1 20 bc 4d ac c1 3d 95 a8 76 3e
       -0.46727178 -0.009811697 0.09456692 0.24087746
000180 55 72 ba bd dc d5 e2 bd 0a 72 61 be c3 dc b1 bd
       -0.09103838 -0.11075947 -0.22016159 -0.08684685
000190 0c cb 64 3e 3c c2 8b 3c fb f8 61 bc da 44 fc bc
       0.22343081 0.017060392 -0.013792272 -0.03079455
0001a0 b3 c5 7a bd f4 50 60 b9 07 d9 07 bf 63 b5 01 3e
       -0.061223697 -0.00021392462 -0.5306553 0.1266685
0001b0 ef 47 a0 be 53 6b eb 3d 63 39 af 3d 9d 6d 9e bc
       -0.3130488 0.1149508 0.085558675 -0.019339377
0001c0 69 bb 1b 3e 4c 46 95 bd 6f cb 80 3d e9 75 2a 3e
       0.1520821 -0.07288799 0.06288802 0.16646542
0001d0 3c 0d 09 3e 1f 1d 8e 3d 47 f4 83 bb ed 86 9c 3b
       0.13383955 0.06939148 -0.004026923 0.0047768266
0001e0 a6 ef a8 be 37 35 8d bd a2 5b 21 3d e6 88 a0 bd
       -0.32995337 -0.068949156 0.03939403 -0.07838611
0001f0 8c 05 2a 3d 3a 63 a6 3d ca ad cc bd 32 61 b4 3d
       0.041509196 0.08124395 -0.09994085 0.08807601
000200 45 fd 7a 3d 33 78 b2 3c d7 6f 48 ba 35 5c 51 be
       0.061276693 0.021785831 -0.000764606 -0.2044533
000210 bd e6 a1 bc cf eb 1a 3e ad 8f 4f 3e ac 6b c2 bd
       -0.019763345 0.15129016 0.20269652 -0.09493193
000220 04 b9 e5 3b 42 5e 42 3e ef 42 94 3e 31 6a 0b be
       0.007010581 0.18981269 0.28957316 -0.13614728
000230 2a 12 0d 3d cc f5 92 be c8 16 91 3d 2c 66 ef 3d
       0.03444115 -0.28703153 0.07084423 0.116894096
000240 75 59 1e bd 57 f1 dc be 6e 16 53 3d b5 5a 48 3d
       -0.03865953 -0.43152878 0.051535062 0.04891463
000250 5b f4 1c be 22 fb cc 3d 11 c6 bc 3a 15 01 1a bf
       -0.15327589 0.10008837 0.001440229 -0.601579
000260 07 68 a2 bd 66 3f 08 bd 60 10 2c 3e 76 05 41 3e
       -0.07929998 -0.033263586 0.16803122 0.1884974
000270 08 3f 39 bd 65 de 2d be 20 ab 05 be b9 a1 42 3e
       -0.045226127 -0.16979368 -0.1305356 0.19007005
000280 b0 e5 35 3d 4f 45 15 be ec ad a1 bd 8c 8c a3 be
       0.0444085 -0.1457722 -0.07894501 -0.31943166
000290 40 7e de be 75 d4 84 3e 18 ea df 3d 45 48 3b 3e
       -0.43455696 0.25943342 0.10933322 0.18289287
0002a0 4f ed 90 bd 22 cc 57 3c f2 a9 a2 be e9 1f 6c be
       -0.07076513 0.013171228 -0.31770283 -0.23059048
0002b0 9f 31 8f be 3e 9d b1 bb d5 c0 cf 3d 64 b2 04 bb
       -0.27967545 -0.005420356 0.10144202 -0.002024793
0002c0 07 4d af be 3b 8f 83 be 1f ea 30 3c de a4 8b be
       -0.34238455 -0.25695214 0.010798006 -0.2727422
0002d0 d9 93 a5 3d 37 f5 e1 3d 1b 0f 2c be d1 b8 c1 3d
       0.0808484 0.11033099 -0.16802637 0.09459079
0002e0 86 25 84 3d 24 9f bc 3c 4d 43 b6 be fb a9 66 3c
       0.064524695 0.023025103 -0.3559822 0.014078612
0002f0 76 f7 e8 3d 57 5b 54 3d 07 09 88 be 01 77 bc be
       0.113753244 0.05184492 -0.26569387 -0.36809543
000300 cd b6 c2 be ca 48 33 bd 5b ca b2 3d f9 03 b1 b9
       -0.3803009 -0.04377059 0.087300025 -0.0003376303
000310 47 f2 d1 be 7b ba 9a bd 8b 6d 6c 3d c7 27 c4 3d
       -0.41005155 -0.075550996 0.057721656 0.095778994
000320 24 0d 77 be 9c 8b 8f 3e f6 36 e4 be 3c 1d 18 3c
       -0.24126107 0.280362 -0.44573182 0.009284314
000330 b6 57 22 3e c1 19 88 3c 1c f5 1d 3d 3d 9d 2c 3d
       0.15853772 0.016613843 0.038563833 0.04214214
000340 7c c7 97 bb 2e 78 29 3c 30 ef a7 be 3b e5 e1 3c
       -0.0046319347 0.0103435945 -0.32799673 0.027575126
000350 06 f5 9e 3c 2d 43 c0 bc db 74 80 3d ae 5c 1e bd
       0.019403946 -0.023469532 0.062722884 -0.038662605
000360 c6 fd 72 be f3 9e c6 be 62 3c 8a 3e 35 20 ad bc
       -0.2372962 -0.38793144 0.26999193 -0.021133522
000370 d3 33 17 be 0e 2f 1a be 61 da 7b 3d 11 41 1d 3e
       -0.14765863 -0.15057012 0.06148756 0.15356852
000380 81 51 6c 3e 23 25 0a be bc 06 97 39 ad c1 1d 3d
       0.23077966 -0.13490729 0.00028805982 0.03851478
000390 91 fb 01 bf 7c 00 d6 bc dd 50 36 bd ce aa 5a be
       -0.50774485 -0.026123278 -0.04451071 -0.2135422
0003a0 f6 d8 82 3e ce 5d 21 bd 8f 02 14 3d 74 7a 84 3e
       0.25556153 -0.0393961 0.036135253 0.25874674
0003b0 a3 0b 4b be 27 ae 10 bd a8 49 12 3e cd ae 49 3e
       -0.19828658 -0.035322335 0.1428591 0.19695587
0003c0 56 ed aa 3c 57 2f 98 3c 82 24 1e bd 01 0e 1b 3e
       0.020865124 0.01857726 -0.038609035 0.15142061
0003d0 ba 57 ab 3e 5c 5e 24 be 8a 8d 24 3d 0c 68 63 3d
       0.33465368 -0.1605162 0.040174045 0.05551915
0003e0 19 dc 80 3c 78 4d 31 3e ed 22 cb 3c 6f 6b 19 3e
       0.01572995 0.17314708 0.024796927 0.14982389
0003f0 ab fc 22 3e 76 85 a5 be 98 69 b0 be 4d 31 aa 3d
       0.15916698 -0.32328385 -0.34455562 0.08310185

model.4.bias f4 [64]
000000 f1 55 9d bb de 01 64 bd 68 39 22 bd b9 2e 6c bd
       -0.004801505 -0.055665843 -0.039605528 -0.057661746
000010 2c 40 28 bd f5 23 75 bd d1 a9 79 bc 1a f7 29 3d
       -0.041076824 -0.059848744 -0.015238241 0.04149542
000020 88 b2 b9 bd bb b6 44 bd ca 84 dc 3b 99 5b 42 3c
       -0.09067255 -0.048025828 0.006729697 0.011862659
000030 3b 12 ed 3c cc f2 89 3d da 2f a6 bd 0a 24 00 3d
       0.028939357 0.06735763 -0.08114596 0.03128437
000040 f4 3e 93 bd 63 8b 83 bd 05 89 72 3d b2 6c 6a 3d
       -0.07189742 -0.0642307 0.059212703 0.057232566
000050 92 df 2b ba e1 1b 36 3d c3 92 c8 3b 66 d5 5b bc
       -0.0006556447 0.04446018 0.006121011 -0.013417577
000060 41 8b a7 bd 9b 93 69 3d 5b 9f 16 3d 57 9b 80 bb
       -0.081808574 0.057025533 0.036773067 -0.003924768
000070 b9 13 8b bd d4 e2 74 3d 28 52 00 bd 02 65 8d 3d
       -0.06790871 0.059786633 -0.03132835 0.06904031
000080 b1 33 9a bd fa 58 77 bd ce da 62 3d a9 27 39 3d
       -0.075293906 -0.06038759 0.05538445 0.04520384
000090 23 36 ab 3d 51 2e e8 3b 7f b5 69 bb 97 01 b5 bc
       0.08359935 0.0070855995 -0.0035661159 -0.022095485
0000a0 6b 44 17 bc 09 ff e6 3c 9c 57 a2 bd dd c0 ce bb
       -0.009232621 0.028197782 -0.079268664 -0.006309612
0000b0 67 50 35 3c 3f b7 a1 bd 92 96 a0 3d 06 08 61 ba
       0.011066533 -0.078962795 0.07841219 -0.00085842644
0000c0 fa 7d d9 ba 7c 8a 01 bd 12 23 0d bd 11 39 aa 3d
       -0.001659333 -0.03162621 -0.034457274 0.08311666
0000d0 16 a3 8e 3d 3d 54 27 bd 89 e8 19 bd 4f a1 4d 3d
       0.069647 -0.04085182 -0.03757528 0.050202664
0000e0 73 b1 f3 3c ee 6d 40 3c 90 95 5e 3d da eb 5a bd
       0.0297477 0.011744959 0.054341853 -0.05344758
0000f0 76 c2 cb bd 2b f3 91 3d 16 b5 0f 3d 15 fa 31 3d
       -0.099492 0.07126459 0.035084806 0.043451387

model.5.weight f4 [64]
000000 d7 e4 51 3f 12 a3 7e 3f 5c 52 67 3f 54 e1 24 3f
       0.81989807 0.99467576 0.90360045 0.64406323
000010 ae 82 8a 3f 78 36 34 3f 35 84 6c 3f c2 ea 5c 3f
       1.082113 0.7039561 0.9238923 0.8629571
000020 f0 0c 88 3f f5 31 64 3f 8c a7 37 3f a1 41 22 3f
       1.0628948 0.8913873 0.7174003 0.6338139
000030 25 6b 55 3f 5a f8 38 3f 07 c2 88 3f 1d 61 ca 3e
       0.83366615 0.72253954 1.0684212 0.39527217
000040 a7 bd 83 3f e6 c2 5b 3f aa da 49 3f f3 8c 58 3f
       1.0292252 0.85844266 0.7884928 0.8459007
000050 88 ce 38 3f 86 92 57 3f 15 f3 77 3f e9 5f 6c 3f
       0.7219014 0.8420795 0.9685529 0.9233385
000060 9f 69 af 3e 0a 62 8a 3f 38 a9 94 3f 22 fd 47 3f
       0.3426027 1.0811169 1.1614141 0.78120625
000070 dc 9e 80 3f c2 78 5c 3f 71 eb 69 3f e4 3b 20 3f
       1.004848 0.8612176 0.9137488 0.62591386
000080 70 dc 45 3f 5a a8 34 3f 4e a8 24 3f 41 3b 73 3f
       0.77289486 0.70569384 0.6431931 0.9501229
000090 20 b5 81 3f 74 aa 70 3f 83 8a e0 3e 54 d5 6a 3f
       1.01334 0.9401009 0.43855676 0.9173176
0000a0 67 20 77 3f c6 b8 76 3f e8 cd 75 3f c9 c5 51 3f
       0.9653382 0.9637569 0.96017313 0.8194242
0000b0 71 2c 4d 3f 3b 4e 35 3f a5 2e 66 3f 0e 19 5b 3f
       0.8014594 0.70822495 0.89914924 0.85585105
0000c0 a2 50 8a 3f 41 db 0e 3f 2d 5c 84 3f 7a 45 84 3f
       1.0805857 0.55803305 1.034063 1.0333703
0000d0 16 32 73 3f 7c 87 3e 3f d5 80 69 3f 80 23 85 3f
       0.949983 0.7442548 0.9121221 1.0401459
0000e0 09 fd 57 3f d7 10 3c 3f 42 32 6b 3f d2 97 51 3f
       0.84370476 0.73463196 0.9187356 0.81872284
0000f0 11 0a 7a 3f 87 6e 25 3f 07 4e 0e 3f bb 30 66 3f
       0.9767161 0.64621776 0.5558781 0.89918107

model.5.bias f4 [64]
000000 36 98 54 be 7f b1 fd be b2 55 38 bf c7 90 f8 be
       -0.20761189 -0.4954948 -0.7200576 -0.48547956
000010 de a4 26 bf b3 b9 b2 be f7 3a e9 be b5 98 fc be
       -0.6509532 -0.34907302 -0.455528 -0.49335256
000020 7b e3 22 bf 26 21 03 bf 86 ff 06 bf 87 06 5f be
       -0.6362836 -0.51222456 -0.5273365 -0.21779834
000030 55 ac cb be 66 99 d3 be a3 4c 27 bf cf 75 51 be
       -0.39779916 -0.4132797 -0.65351313 -0.20455097
000040 0e 64 6c bf f6 e7 d3 be 52 18 f9 be 41 fa fb be
       -0.9234017 -0.4138791 -0.48651367 -0.49214366
000050 f1 b3 be be 98 d4 14 bf 63 04 15 bf d4 57 3f bf
       -0.3724666 -0.5813689 -0.5820982 -0.7474339
000060 ea 98 58 bd bd 28 2a bf ae ea 12 bf f7 52 08 bf
       -0.052880205 -0.6646841 -0.5738934 -0.53251594
000070 3b b9 0e bf 58 09 2d bf 7f ae 43 bf 69 5d 12 bf
       -0.5575139 -0.6759238 -0.76438135 -0.5717378
000080 20 6e 53 bf 6a df d7 be db d6 b5 be f7 ca 6f bf
       -0.8258991 -0.4216264 -0.35515484 -0.93669075
000090 07 57 5e bf 76 3b 13 bf a9 76 09 be f9 79 3d bf
       -0.86851543 -0.57512605 -0.13424172 -0.7401424
0000a0 28 17 f8 be 12 33 14 bf 35 25 75 bf 8e f5 2f bf
       -0.48455167 -0.5789043 -0.957599 -0.6873406
0000b0 bf 5d 10 bf 1d 80 0c bf 4d a2 40 bf 37 4f 1e bf
       -0.56393045 -0.54882985 -0.7524765 -0.6183962
0000c0 33 6b df be 4c 9b a4 be 0e c2 54 bf 54 6c 1d bf
       -0.43636474 -0.32149732 -0.83108604 -0.6149342
0000d0 24 4e 5d bf 96 b0 13 bf 4f 2a 32 bf 29 33 39 bf
       -0.8644736 -0.57691324 -0.6959581 -0.7234369
0000e0 a6 7d c5 be 94 1b e1 be 86 42 e7 be 6e 74 a9 be
       -0.38572425 -0.43966353 -0.4516794 -0.3309664
0000f0 93 e7 2f bf f9 e6 db be e4 5d 9b be 4a fd 4b bf
       -0.6871273 -0.42949656 -0.3034507 -0.79683363

model.5.running_mean f4 [64]
000000 5d 70 a5 be 94 6a 11 bf 0b 89 17 bf f2 02 fe be
       -0.3231229 -0.5680325 -0.59193486 -0.49611622
000010 75 18 48 bf b5 a4 e3 be 98 f5 dd be ff 74 69 be
       -0.7816232 -0.444616 -0.43351436 -0.22798537
000020 e6 73 66 bf 49 d5 09 bf 88 8e b9 3e c3 8a 61 be
       -0.90020597 -0.5384107 0.36241555 -0.2202559
000030 a2 e3 bf be e3 dc e5 be 58 94 5d bf ed 75 6f be
       -0.37478358 -0.44895086 -0.8655448 -0.23384829
000040 79 ea 85 bf be f1 ef be b7 5c 9b be 43 ba 08 bf
       -1.046218 -0.46864122 -0.30344173 -0.5340921
000050 ae f6 ed be 0d 86 14 bf 1a dd 2c bf 4f 44 3d bf
       -0.46477264 -0.58017045 -0.67524874 -0.73932356
000060 3d 17 1f be a5 1b 0d bf 52 5d 02 bf 3d b6 3f be
       -0.15536208 -0.5512031 -0.50923645 -0.18721862
000070 34 c6 31 bf e2 8b 5a bf ba 55 1d bf de 8c aa be
       -0.6944306 -0.85369694 -0.61458933 -0.33310598
000080 f9 58 06 3e 0b d0 b3 be 62 ea c1 be ca 77 b5 3d
       0.13119878 -0.35119662 -0.37874132 0.088607386
000090 e3 3d 2a bf 56 ee 19 bf 40 2b 85 be b2 9a 42 3e
       -0.6650068 -0.60129297 -0.2600956 0.19004324
0000a0 87 57 10 bf a4 40 14 bf cf a4 cc 3e 81 83 7d bf
       -0.56383556 -0.57911134 0.3996949 -0.99028784
0000b0 69 b1 f5 be 8b 80 19 bf d0 d9 ee be 9f dd 16 bf
       -0.47986916 -0.59961766 -0.46650553 -0.58931917
0000c0 a6 82 35 be 83 31 85 be f5 4c 80 3e e2 d4 15 bf
       -0.1772562 -0.26014337 0.25058714 -0.5852796
0000d0 96 5e 2f bf fb d6 c0 be 42 7e 4d bf 07 77 55 bf
       -0.685037 -0.37664017 -0.8027078 -0.83384746
0000e0 af 31 d4 be 00 3a fb bc 58 4c a6 be bb 87 db be
       -0.41444156 -0.030667305 -0.3248012 -0.42876992
0000f0 17 df 35 bf 8d 16 c9 be eb de f8 be 7f 72 40 bf
       -0.71043533 -0.39275017 -0.48607573 -0.7517471

model.5.running_var f4 [64]
000000 99 fb 43 3f f2 de 83 3f 4b 6c d9 3e 48 5c ad 3e
       0.7655578 1.0302413 0.42465433 0.33859468
000010 18 41 9e 3f cf 03 08 3f ec 06 31 3f b7 0d 98 3e
       1.2363615 0.5313081 0.69151187 0.29697964
000020 dd a0 c2 3f 68 d0 20 3f f8 5b a0 3e f7 92 f4 3e
       1.5205342 0.62818 0.31320167 0.47768375
000030 48 81 25 3f 98 67 2c 3f bb 4d b2 3f 7a 7c 6f 3e
       0.6465039 0.6734557 1.3929971 0.23387328
000040 1c d5 81 3f 7e 17 26 3f a0 e4 d6 3e 97 8a 6d 3f
       1.0143161 0.64879596 0.41971302 0.92789596
000050 c4 49 36 3f e9 aa 34 3f 06 cb 8d 3f 1e d5 41 3f
       0.7120631 0.7057329 1.1077583 0.75715816
000060 99 b7 73 3e a7 7d 6a 3f 47 4a 8b 3f f4 b9 34 3e
       0.23800506 0.9159798 1.0882043 0.1764906
000070 16 d6 8e 3f 0f 52 90 3f f0 ad e0 3e ed df 62 3e
       1.1159084 1.1275042 0.43882704 0.22155733
000080 02 be 8d 3e 17 ba 91 3e 8e b0 e1 3e 14 40 37 3f
       0.27684027 0.28462288 0.44080013 0.7158215
000090 b1 aa 4f 3f 79 65 51 3f 4e f5 1a 3f 2e df be 3e
       0.8111983 0.8179546 0.60530555 0.37279648
0000a0 23 df 96 3f 70 ce 49 3f 24 ad 00 3f 93 9a a3 3f
       1.1786846 0.78830624 0.5026419 1.2781547
0000b0 ca 77 0a 3f df f1 28 3f d2 b2 d2 3e e1 10 0d 3f
       0.54089034 0.65994066 0.41152054 0.5510388
0000c0 c4 cf 18 3f 09 8e 95 3e b1 3b d7 3e 20 ed 99 3f
       0.59692025 0.29209927 0.42037728 1.202549
0000d0 bc e2 17 3f 68 b2 b1 3e e6 1a 5e 3f b7 36 a8 3f
       0.59330344 0.34706426 0.86759794 1.3141698
0000e0 b6 81 63 3f 18 fa 91 3e 3d d1 00 3f 4c f1 28 3f
       0.888698 0.2851112 0.5031927 0.6599319
0000f0 67 cd 1e 3f 5f 83 ba 3e 5f e5 64 3f a4 e2 2a 3f
       0.6203217 0.36428353 0.8941249 0.66752076

model.8.weight f4 [32, 64]
000000 68 9e ab 3d 03 5e 01 3e b5 a1 01 3e fe 12 70 3c
       0.08379823 0.12633519 0.12659343 0.014652966
000010 60 20 48 be 53 2c f4 3b b8 e9 62 bc 13 fc 04 3e
       -0.195436 0.007451573 -0.013849668 0.12986784
000020 17 11 01 be bd a5 18 3e 4c b9 4e bd 2e 45 c0 3c
       -0.12604176 0.14906974 -0.05046968 0.023470487
000030 a7 02 2e 3b 6f 77 31 be 83 5d 40 be b9 8b d0 bd
       0.0026551874 -0.17330717 -0.18785672 -0.101829
000040 43 25 4c be 15 cd 90 3c ea 7b 83 be fa 26 00 3e
       -0.19936089 0.017675916 -0.25680476 0.12514868
000050 b9 7b 25 3e 29 5b f5 bc bf 2b 46 be 5d 3a c9 bb
       0.16160478 -0.029950695 -0.19352625 -0.0061409906
000060 cc af 32 bc ec 06 5f 3e 55 56 3d be a3 a0 6b bd
       -0.010906171 0.21779984 -0.18489964 -0.057526242
000070 5e 69 2d be f4 07 58 be 85 89 14 3d 5c 44 5c 3d
       -0.16934726 -0.21096784 0.03626396 0.05377613
000080 37 77 47 bd f6 d0 5c 3d 4f 56 20 be cf 79 04 bd
       -0.048697677 0.05391022 -0.15657924 -0.03234273
000090 f9 13 a1 bd 84 ac f2 bd 6e ca ba bc 1c e8 1d 3e
       -0.078651376 -0.11849311 -0.022801604 0.15420574
0000a0 8e 6d 5d 3c 26 b3 bd bd a5 b9 c5 bd 0b 86 59 3e
       0.013514889 -0.092626855 -0.096545495 0.2124254
0000b0 d0 54 80 3d b1 5d 59 bd 52 3f 6c 3e 0d 54 2f 3e
       0.06266177 -0.053067867 0.2307103 0.17121907
0000c0 f0 ff c0 bd 8b f4 c2 bc 3c ea d0 3d 76 d4 20 3e
       -0.09423816 -0.023798248 0.10200927 0.15706047
0000d0 aa 60 8d be b9 ab b3 3d d2 be 81 bd c5 f3 35 be
       -0.2761281 0.08772988 -0.06335224 -0.17768772
0000e0 4d 05 da 3b 7c 40 1b 3d dd 2f 5d 3e 4e be 24 3e
       0.006653464 0.037903294 0.2160029 0.1608822
0000f0 d3 f9 20 be 43 bb 5f be 70 f7 75 3d de 0a b9 be
       -0.157203 -0.21848778 0.060050428 -0.36141104
000100 be 7e 71 3d de 01 7a 3d 34 35 c3 3d d5 af c9 bb
       0.05895876 0.061036937 0.09531632 -0.006154994
000110 cb 28 e7 bd 00 ea b8 3d 81 ac ab 3d eb 61 93 bc
       -0.112870775 0.09029007 0.08382512 -0.017991027
000120 78 ce 4e be ea 98 41 3d 47 b6 90 bd 5b 56 82 bd
       -0.20195949 0.04726497 -0.07066017 -0.06364127
000130 94 7e c6 3d 75 80 4c be 48 7e 30 be d9 55 c1 bd
       0.096921116 -0.19970877 -0.17235672 -0.09440202
000140 11 f1 d6 bd ca 8c 1f 3e 87 17 68 be 8a 83 82 3e
       -0.104951985 0.1558105 -0.22665225 0.2549098
000150 92 1d b0 3d 23 a9 0a be e0 4e 2f be 08 36 eb 3d
       0.0859939 -0.13541083 -0.17119932 0.11484915
000160 85 49 33 bd b2 3a 74 3e 03 78 4e bd da 74 ad bc
       -0.043771286 0.23850515 -0.05040742 -0.021173883
000170 e1 f9 aa bc e0 cf 6f be fd da 90 bd 3d d6 80 bd
       -0.020871105 -0.23419142 -0.07073019 -0.06290863
000180 d3 cf 67 3b c6 15 54 bb 82 b2 28 be 68 0d 2b be
       0.0035371676 -0.003236161 -0.16474345 -0.16704333
000190 42 e0 c0 3c ce 36 88 bc af ac 21 bd 19 0e 47 3e
       0.023544434 -0.016627695 -0.039471325 0.19438972
0001a0 03 bd 1c bd c3 a3 77 be 77 09 37 3d 60 7e 18 3e
       -0.038266193 -0.24183564 0.04468676 0.14891958
0001b0 a7 cc 2d 3d 56 36 07 3c e7 47 95 3e 02 36 13 bd
       0.0424315 0.008252701 0.2915642 -0.035940178
0001c0 6f 0a 6b be 24 00 3a bc ec f9 e4 bd 39 93 dc 3d
       -0.22953199 -0.011352573 -0.11180481 0.10770268
0001d0 c0 bc 98 be 8e f2 ab 3d 9e 4b 6f bd 53 f4 39 be
       -0.29831505 0.08395873 -0.058421724 -0.18159609
0001e0 f0 fa 94 3d 82 e0 2e 3d 2b 36 28 3e 96 07 d2 3d
       0.07274425 0.042694576 0.16426913 0.10255353
0001f0 9f 79 e3 bd c7 ec 1f be e0 47 b9 bc 56 d4 c5 be
       -0.11107182 -0.15617667 -0.02261728 -0.38638562
000200 bc 39 5a bd 2b ab 1e 3d 82 5c 16 3e e8 bb 64 bc
       -0.053277716 0.038737457 0.14683726 -0.013960816
000210 b0 37 80 be a5 90 d5 3d 8a 2c c1 3d 21 62 84 3d
       -0.25042486 0.104279794 0.09432323 0.06464029
000220 00 24 21 be 20 0d 36 bd f2 df e5 3d 5f cd 3b 3d
       -0.15736389 -0.04444611 0.11224355 0.045850154
000230 c8 10 53 3d 0b 64 19 be 98 68 4f be 00 50 5d bd
       0.051529676 -0.1497957 -0.20254743 -0.054031372
000240 0d a9 67 be 4b 28 13 3e 9d 5b 99 bd 70 89 3d bd
       -0.22623082 0.1437084 -0.07488177 -0.04627365
000250 eb 87 2f bd 5c 27 0b be 34 43 26 be 64 b1 be 3c
       -0.04285423 -0.13589233 -0.16236573 0.023277946
000260 1b 23 a6 bd 1c 43 11 3e a5 8f 80 be 5c 2b 27 3e
       -0.081121646 0.14185756 -0.25109592 0.16325134
000270 6d 81 83 bd 4f 5f 2d be f3 be ed 3d d5 e6 80 bd
       -0.064211704 -0.16930889 0.11608686 -0.06294028
000280 96 b4 3d 3d 4d 0b 86 bd d0 7c fa bd 19 fa 5f bd
       0.0463148 -0.06545124 -0.12230837 -0.05468187
000290 74 a8 26 3e fd ee 2c be 19 46 eb 3b 74 da c7 3d
       0.16275197 -0.16888042 0.007179987 0.097584635
0002a0 4e a6 06 3d da 34 80 be c8 47 1c 3e 10 ac 51 3e
       0.032873444 -0.25040323 0.15261757 0.20475793
0002b0 ee bf 73 3d 73 a9 4a bd 48 c4 99 38 bd f3 1d 3e
       0.05950921 -0.049478006 7.332169e-05 0.1542501
0002c0 c6 05 43 be fe 40 a3 bc d2 cf a4 3d 73 e9 1e 3d
       -0.19045171 -0.019928452 0.08047451 0.038796853
0002d0 b0 32 c6 be 80 f9 f9 3b ae 9d 1d be af e1 30 be
       -0.38710546 0.0076286197 -0.15392181 -0.17273591
0002e0 7d 6e d1 3d 17 96 0d 3e 4f 1a d0 3b f5 a9 ab 3c
       0.10226152 0.13826786 0.0063507925 0.020955065
0002f0 fc 10 65 be 10 fe d6 bd 4e 92 e8 3d b3 85 fe be
       -0.2236976 -0.10497677 0.113560304 -0.4971138
000300 7e 2b d0 3d 2f df 44 be 62 30 e5 bd 5c 92 61 3c
       0.101645455 -0.19225763 -0.11190869 0.013767805
000310 f7 85 0f 3e 80 b6 7e bd fc 8f 88 bd 7e 8b 09 be
       0.14015947 -0.062185764 -0.06668088 -0.13432118
000320 f6 ee da 3d fd a2 da bd 40 ae 63 bd b4 f4 07 be
       0.106901094 -0.10675619 -0.0555861 -0.1327694
000330 ee 4b 28 3d a9 3c 7f 3c f7 3b 27 3e 64 5d 45 bd
       0.041088037 0.015578427 0.16331469 -0.048184767
000340 a8 84 86 3d b7 e8 31 be 15 c5 e9 3d 02 f7 fa bd
       0.06568271 -0.1737393 0.114145435 -0.12254144
000350 d4 46 02 be 16 bc 32 3e 49 f2 00 3e e8 36 b4 bd
       -0.12722331 0.17454562 0.12592424 -0.08799535
000360 5c 0c b6 3d f4 85 a4 3d 51 20 e1 3d a2 ec c0 bd
       0.08889076 0.08033362 0.10992492 -0.09420134
000370 e0 ab 84 3d 1f 8d 72 3d 01 85 9f bb b3 dd 3f bd
       0.06478095 0.059216615 -0.00486815 -0.04684229
000380 5c 04 1a be cd f1 33 bc 96 9d 78 bd 78 de cb bd
       -0.15040725 -0.010982943 -0.06069716 -0.09954542
000390 1d 65 ee bd 1b 6d 35 3e 32 57 fd bc 85 1e 03 be
       -0.116403796 0.17717402 -0.030925367 -0.12804611
0003a0 5f 1c 06 be 5e be 00 3e f7 41 d3 bd 92 56 32 be
       -0.1309676 0.1257262 -0.10315316 -0.17415836
0003b0 6f ab 3d 3d 01 e7 6c bd 8e 2e fe bd c8 3d 97 bd
       0.04630607 -0.05783749 -0.12411223 -0.07384831
0003c0 33 5d e0 3d 0c 47 e7 3c 74 8d e8 bd 9a eb 4c be
       0.10955276 0.02823212 -0.11355105 -0.2001175
0003d0 30 6d d7 bb 17 41 2c be aa a9 29 3e 5c 2f 74 3e
       -0.0065742955 -0.16821705 0.16568628 0.23846191
0003e0 5f 43 19 be fb e2 2c be af a6 1d bd 0e 8a ce 3c
       -0.14967106 -0.16883461 -0.03848904 0.025212314
0003f0 a8 6f 23 3e b8 fa 7e 3d 56 52 05 be fc 25 c4 3d
       0.15960562 0.062250823 -0.1301969 0.095775574

model.8.bias f4 [32]
000000 b9 6b 82 bc 2c 4d 88 bd 3f 26 86 bd 7c d3 2f bc
       -0.015920507 -0.06655344 -0.065502636 -0.010731574
000010 de 5d de 3d 2e 4a ef 3d 24 50 9d bc 2a 3a 9b 3d
       0.108577475 0.116840705 -0.019203253 0.07579453
000020 6d 0d 97 3d bf d1 2c 3d c1 24 75 bd 29 21 9b 3d
       0.07375608 0.042192217 -0.059849504 0.07574684
000030 f3 a9 da bd ba f4 b6 bc 7a f7 3c 3d 05 7a db 3d
       -0.106769465 -0.022333492 0.04613445 0.10716633
000040 fe 55 09 3d 88 2c 8b bd 06 17 c3 bd ce e2 10 be
       0.033529274 -0.06795603 -0.09525876 -0.14149019
000050 fa ce 10 be ce 62 1b 3c a8 c8 3a 3c 51 86 8c 3d
       -0.14141455 0.009484006 0.011400379 0.06861556
000060 0c 85 3a bd f2 25 1d bd 8d 0f 8b bd 5c fd c9 3b
       -0.04553704 -0.038366266 -0.067900755 0.006164236
000070 d8 bd 89 3d 78 d6 af 3d 40 14 f8 38 35 53 75 3d
       0.06725663 0.085858285 0.000118293334 0.059893806

model.9.weight f4 [32]
000000 8d ac 5e 3f 17 3e 75 3f c6 7f 80 3f df 07 86 3f
       0.8698204 0.95797867 1.0038993 1.0471152
000010 d7 fd 8c 3f 71 a8 83 3f 71 80 69 3f c6 6f 74 3f
       1.1014966 1.0285779 0.9121161 0.9548305
000020 86 52 81 3f d1 31 76 3f 13 fa 81 3f 6e 29 98 3f
       1.0103309 0.96169764 1.0154442 1.1887643
000030 ee 82 7f 3f 40 4c 5f 3f ac b8 82 3f a3 8f 7a 3f
       0.9980916 0.87225723 1.0212607 0.9787542
000040 22 0a 84 3f 9f 52 8f 3f 35 6f 86 3f 0c 32 86 3f
       1.0315592 1.1197089 1.0502688 1.0484023
000050 2a 42 87 3f 4b 04 7b 3f ab 38 80 3f 16 65 89 3f
       1.0567067 0.98053426 1.0017294 1.0733974
000060 07 96 5f 3f 31 7b 90 3f 58 a5 88 3f ea 17 6d 3f
       0.873383 1.1287595 1.0675459 0.92614615
000070 9e 4e 70 3f 33 43 78 3f 9c 87 85 3f 2b 6c 83 3f
       0.9386996 0.9697754 1.043201 1.0267385

model.9.bias f4 [32]
000000 7f c3 47 3d 8c a4 2b 3c 3c 2d 85 3b dc 69 99 be
       0.048770424 0.010476243 0.0040642302 -0.29963577
000010 1b e6 92 3d d2 b7 0b bd c6 98 e6 be df cd d0 be
       0.071727954 -0.03411085 -0.45038432 -0.40782067
000020 02 de 2e bd 51 36 49 be 65 ec b4 be 50 d6 a5 be
       -0.042692192 -0.19649626 -0.35336605 -0.3239007
000030 65 0d 04 bf 3a a9 58 bd 0d 52 13 be 36 ec 08 bf
       -0.5158294 -0.052895762 -0.14386769 -0.5348543
000040 5d 51 89 bd 76 27 12 bf 2a 1b e3 be 87 00 b9 3d
       -0.06704972 -0.5709146 -0.44356662 0.09033304
000050 db 99 58 3e 85 82 6c 3c c9 9b a8 bd 2a 11 0e bf
       0.21152441 0.014435415 -0.08232839 -0.5549494
000060 92 ec e4 be 98 9c b1 be 57 95 d0 be 45 d3 01 bf
       -0.4471174 -0.34689784 -0.40738937 -0.50712997
000070 4d c5 d9 be 9f 44 df be d1 08 0a 3e 7c 1c da 3d
       -0.4253334 -0.4360704 0.13479926 0.10649964

model.9.running_mean f4 [32]
000000 ff e3 25 3b 7c a7 d1 bd bf db d1 bd 6a 42 56 be
       0.0025312898 -0.10237023 -0.10246991 -0.20923772
000010 c2 94 18 3e 8e 9d c7 3d cc 53 ee be da 64 5a be
       0.14900497 0.09746848 -0.46548307 -0.21327534
000020 73 6d 0e 3d 36 85 79 bd 57 e1 9d be 2b 5d 23 be
       0.034772348 -0.060918055 -0.30835983 -0.1595351
000030 52 a3 1e bf 50 c4 69 3e d3 a4 20 bd 3c e1 14 bf
       -0.6196796 0.22828794 -0.03921969 -0.5815618
000040 93 c4 fc ba 4b 1f 11 bf f0 c2 f7 be 08 56 dd bd
       -0.0019284658 -0.56688374 -0.48390913 -0.10807425
000050 e0 75 69 bc c6 f2 a0 b9 de a4 52 bd dd 70 e3 be
       -0.014249295 -0.00030698458 -0.05142676 -0.44422045
000060 cf 3c b8 be 2a 0d 99 be 4d 09 d8 be 45 71 e5 be
       -0.35983893 -0.29892856 -0.42194596 -0.4481298
000070 50 a6 8f be 3c 31 c0 be f7 da 9f 3d 8a 40 eb 3d
       -0.28056574 -0.37537563 0.07805436 0.11486919
