models/ann_model.pth (torch, 60304 bytes, 10 tensors)

model.0.weight f4 [128, 22]
00000000: 7cf0 903c 89aa c4be 80bd ae3d fdfa 7cbe
00000010: eeee 87be 639b 2a3d 1f68 eebe 1776 0d3e
00000020: 1bda d83d 9e4c eebd c050 0d3d a5da 4dbe
00000030: aad6 8c3e 0320 eb3c e147 823d 29ac a33d
00000040: 7a9a a53e a1ca 843d 2518 64bd 872f 893d
00000050: 7a20 fcbc 4f63 9b3c 5ce9 7bbc b909 8abe
00000060: 8126 3e3d a8d3 233c d1ad 1abe 97d5 e5bb
00000070: 914b 05bf 0e36 6dbb c044 903d c7cb fe3e
00000080: 08ca 623b a8b9 e7bc 0a04 d0bb 729b 243e
00000090: 9b27 993d a41d 02be 176c b8bc 1a06 8c3b
000000a0: e555 20bd ef74 c0bb c0c2 9dbd df96 a53d
000000b0: fbe9 933c 97b6 e8be 32cb 033e a653 0cbe
000000c0: 9610 76be 4466 933d 89b9 dabe b5a7 8f3e
000000d0: 736e b9bc 6cab 703c 3924 933c 4d13 863d
000000e0: 8900 f3bd a866 52be 6d84 69bd 1d64 863d
000000f0: 77fb dbbd bb8c 273e 1b59 a13e 8692 9d3d
00000100: c2ed bebd 1918 c03d 2051 1a3b 0a7d cdbd
00000110: 5938 20bd 79a3 1dbe 68bf b43d 8c4e 76bd
00000120: 147f eebe e483 383d 3b7c 86be 322e 8ebc
00000130: 7859 603d af06 8b3e af82 3cbe 7793 1e3e
00000140: a0eb 3dba e7e8 db3d d00e e03d 2090 bb3d
00000150: 12cf 77bd 5000 60bd e21a 203d e317 30be
00000160: b402 2a3c 324c 59bd f9b1 b23d 8ec6 133d
00000170: 4955 2d3e 41b6 453d 04b9 fbbd 32c8 5f3d
00000180: eba2 8ebc a1be abbd 95f5 0e3d 2a88 85be
00000190: 54b5 62be e6eb ec3d bf98 383d 6a62 2c3e
000001a0: 056a 243e 57bf 35be 5748 ae3e a7b1 663d
000001b0: b7c0 d4bd 7eb1 313e 2878 b53c e4ae 54bd
000001c0: b2f3 f3bc 05be f83c b949 1f3e 8bc8 8fbd
000001d0: 0134 263e c616 9ebd a0be b33d e1e3 3f3d
000001e0: fbfd 51be f36a 1bbe 599f b33d 2914 12be
000001f0: 23d4 50be 52d9 193e 107d ea3d 7406 f4bd
00000200: 01d2 32be 1001 bc3d 9278 c53c cf25 773d
00000210: 1f05 773e 6a42 8d3e 7bd3 363e 6a8e 053e
00000220: 5353 263d 6199 81bd 4bf0 4b3d b6e0 e33d
00000230: 64e1 6ebd d9aa 173e 479e 063e 3b09 3fbe
00000240: 196e a0bd f3d8 debd 292a 82bd ba77 eb3d
00000250: 0037 b23d 663b a53d 4a37 07be f245 39bc
00000260: f1bc c8bd 5157 883d 8f5e a1bb 8ff6 ab3e
00000270: 6556 8f3e 1f14 a7bd e03a 523d 0ac9 493b
00000280: 66d8 aebd 5d78 80bd e93e 51bd 1c58 bd3e
00000290: 0b31 23bd a6ed 073d 045d 0c3e 815f 1b3e
000002a0: 4fe1 833d f818 ffbd 43a9 1e3d 5137 053b
000002b0: b2f3 903d 7c0f af3d 7424 7cbe e304 4d3e
000002c0: 240c 05ba ce62 973e ad9f 0c3e 8438 cb3e
000002d0: 53e8 1b3e 83f3 04bd 8c01 19be 4cd2 43bd
000002e0: 66ca 873d 5f01 be3d 4f5b bc3d 094b b13d
000002f0: ac65 f6bb 9959 b43d 34b8 3e3d be40 a03d
00000300: ab19 7b3c 49a6 ea3b 88b1 d5b8 7115 913d
00000310: 6ac5 28be 8cbe de3d 0180 e2bb 245f 833d
00000320: 584c 443c 9b0f a8be 5883 f83b 0043 03bc
00000330: 167c 33be 6872 abbc 99f4 073e 28a5 cfbd
00000340: 7cf1 873c fd38 023f 8f05 773e 92bf 06bd
00000350: 63fa 25bd 1eff 23bd 1cf3 3f3e 787c 2c3d
00000360: b38a 843d cad8 933c 1ff0 623d 53be 67bd
00000370: 798b 1bbd b4aa e53d 868a ecbd b2e0 123e
00000380: 1451 30be b940 e6bc d5d5 af3e 39aa a7be
00000390: 2dcd b5be c7f0 5dbe a30f cf3d ad6b 393e
000003a0: af2f e53c 5a98 a9bc 751d cf3d ac39 053d
000003b0: 253f c23d bcd4 f13b 7c36 abbd 2dd3 18be
000003c0: 66c7 283d 73aa f0bc e693 60ba fa73 913e
000003d0: 2d9f bd3e 5707 d4bd 0c88 81bc c6b6 cd3d
000003e0: 2c40 70bd 2c61 96be f81d 693c 12ec 003e
000003f0: 5806 86bd ed35 453d cb23 48bb 280f b9bd
0.017692797 -0.38411358 0.08532238 -0.2470512 -0.26549476 0.041652095 -0.46563813 0.13814579
0.10588475 -0.11635707 0.034500837 -0.20102938 0.27507526 0.028701788 0.06361366 0.07991821
0.3234442 0.06483961 -0.05568709 0.06698518 -0.030777205 0.018968252 -0.015375461 -0.26960543
0.04642344 0.009999193 -0.15105368 -0.0070139873 -0.5206843 -0.003619555 0.07044363 0.49764845
0.0034605283 -0.02828677 -0.0063481377 0.16074923 0.07478257 -0.1270662 -0.022512479 0.0042731883
-0.039144415 -0.0058733146 -0.07703161 0.08085417 0.018055907 -0.45451805 0.12870482 -0.13703784
-0.24029765 0.0719724 -0.42719677 0.28057638 -0.022635674 0.014689308 0.017961608 0.0654665
-0.118653364 -0.20546973 -0.057011057 0.06562064 -0.107413225 0.16362278 0.31513295 0.07693963
-0.093226925 0.09379596 0.002354689 -0.10033615 -0.039116237 -0.15394391 0.0882557 -0.060133502
-0.46581328 0.045047656 -0.26266655 -0.017356012 0.054772824 0.27153537 -0.18409227 0.15485941
-0.00072448887 0.10737782 0.10940325 0.09158349 -0.060500212 -0.054687798 0.039088137 -0.17196612
0.010376621 -0.05305118 0.08725352 0.03607803 0.16927065 0.048269514 -0.12291148 0.05463428
-0.01741167 -0.08385969 0.034902174 -0.26080447 -0.22139484 0.115684316 0.045067545 0.16834417
0.16056068 -0.17748772 0.34039566 0.056321766 -0.1038832 0.17352864 0.022152022 -0.0519246
-0.029779289 0.030364046 0.15555467 -0.070206724 0.16230775 -0.077191874 0.08776593 0.04684818
-0.20507042 -0.15177517 0.087706275 -0.14265503 -0.20393424 0.15024307 0.11449635 -0.11915293
-0.17462923 0.0917989 0.024105344 0.06033879 0.24123047 0.27589732 0.17854111 0.13042608
0.040606808 -0.06328083 0.049789708 0.111268446 -0.058320418 0.14811267 0.13146316 -0.18655865
-0.078334995 -0.108812235 -0.06355698 0.114974454 0.08701897 0.0806797 -0.13204685 -0.01130818
-0.09801663 0.06657279 -0.0049246023 0.33586547 0.279956 -0.08158135 0.05132568 0.0030789995
-0.085373685 -0.062729575 -0.051085386 0.36981285 -0.039841693 0.033185624 0.13707358 0.1517315
0.064394586 -0.12455934 0.03873564 0.002032716 0.07077731 0.08547875 -0.24623281 0.20021395
-0.00050753565 0.2956757 0.13732786 0.39691556 0.15225343 -0.032458793 -0.14941996 -0.047807977
0.06630401 0.09277605 0.09197103 0.0865689 -0.0075194445 0.08806152 0.04656239 0.078248486
0.015325944 0.007160936 -0.00010189699 0.07084168 -0.16481557 0.10876188 -0.006912232 0.06414631
0.011981092 -0.32824406 0.007584017 -0.0080115795 -0.17527804 -0.020928577 0.132769 -0.10138923
0.01659464 0.5086821 0.24123214 -0.03289754 -0.04052199 -0.04003822 0.18745083 0.04211089
0.06471767 0.018047709 0.05540478 -0.05657799 -0.03797481 0.112142 -0.11549859 0.14343527
-0.17218429 -0.028107034 0.34342828 -0.32747057 -0.355081 -0.2167388 0.10110404 0.18107481
0.027976839 -0.02070253 0.1011304 0.032525703 0.094847 0.0073800962 -0.083600014 -0.14924307
0.041205786 -0.029378152 -0.00085669605 0.28408796 0.37035504 -0.103529625 -0.015811943 0.10044627
-0.05865495 -0.2937101 0.0142283365 0.12590054 -0.06544179 0.04814713 -0.0030538912 -0.09036094

model.0.bias f4 [128]
00000000: 2698 cbbe 29a3 87be c284 9f3d 1afa f7be
00000010: 1687 61be 8d3b 803e 7e07 1dbc 927d 303e
00000020: 368d 913e 3f13 bfbe d3f3 bbbd aa98 57bd
00000030: 73a7 06be 1ae8 853e fbdd be3d e522 3ebd
00000040: e5cd 1dbf c41a d13b fc88 56bb 580c 31bf
00000050: f692 42bf dbfc 7a3e 3286 e13d 2c73 8e3e
00000060: 8d8f 2bbf f859 a8bd 04dc d6bd db5c 9e3e
00000070: b000 1e3e e822 87be c9b6 febc e0ba 343d
00000080: 9bf7 ef3e 6590 ba3c 78db 86be d40a 913e
00000090: 497c 99be efbd 8abe 862f 52bf 0d4b 40be
000000a0: eff2 55be 1c68 1cbd 5fe2 b83c f884 cebe
000000b0: 9e5e fb3d 4c8f 6cbf 9862 f6be 45f9 6fbc
000000c0: dbee 05bf a238 823d 6ae5 fa3d 3e4b 2e3e
000000d0: 88fd 1b3e bf0a 8a3d 0040 15ba 078f f4be
000000e0: 3e79 0cbf f6d8 4f3d 7ee6 11be c96b 963c
000000f0: 9fac 553d 967b 4d3d f532 e53d 9d28 e0be
00000100: 09d3 813d cf17 f4be b5ab 413d 875d 79be
00000110: 528c 963d 1fc0 023e 28c8 cb3d 55dc 293d
00000120: 5be3 b23d 963f f8be 79f0 18bf 4507 c3be
00000130: 2247 53bf 077d 24bf b394 1d3e 5bf0 87be
00000140: 5a94 963d 5d25 d4bb 5f45 8bbe e5b9 bc3c
00000150: 2dab b7be 5ac4 50bf acbe 793e be71 00bf
00000160: 4a65 88be bc76 70be 3867 153e 2a78 18be
00000170: 5b09 663e 9e6d 17bf 5813 41be ce6c 0e3b
00000180: f7dd 64bf ad0b eebd 2c92 94be aba2 2dbf
00000190: 0c84 32be 6b96 46bf bb46 51be ad54 b63e
000001a0: 94eb b0be 57a7 85be 50a9 99be 545b f43d
000001b0: 9f3c 8bbd 1297 e73c 6995 85bb e6af 933d
000001c0: 0cc7 dbbd 0301 be3d d502 16bf 852c 0fbf
000001d0: e71e d33d f946 623e 956f 3ebe 772f e0bd
000001e0: db93 02bf 81eb 13be af2c f5be 96d3 c73e
000001f0: 8bc7 e5bc 820b 9cbc 3801 b63d 18dc 21bf
-0.39764518 -0.2649167 0.077889934 -0.48433 -0.22024187 0.25045434 -0.009584306 0.17235401
0.28428048 -0.3731937 -0.09177365 -0.052635826 -0.13149814 0.26153642 0.09319683 -0.046419997
-0.61642295 0.0063813645 -0.0032735458 -0.6915946 -0.76005495 0.24510519 0.11011924 0.27822244
-0.67015916 -0.08220285 -0.104911834 0.30930218 0.1542995 -0.2639382 -0.031093018 0.04412353
0.46868595 0.02277393 -0.26339316 0.28328574 -0.29977635 -0.27098033 -0.82103765 -0.1877863
-0.20893453 -0.038185224 0.02256888 -0.40335822 0.12273906 -0.92406154 -0.48122096 -0.014646833
-0.5231759 0.06358458 0.122507885 0.1702089 0.15233433 0.06740331 -0.00056934357 -0.4776537
-0.548725 0.05074402 -0.14248082 0.018361943 0.052166577 0.05016669 0.1119136 -0.43780985
0.0633908 -0.47674415 0.047282893 -0.24352084 0.07350983 0.12768601 0.09950286 0.04146989
0.08734771 -0.48486012 -0.5974193 -0.38091484 -0.82530415 -0.64253277 0.15388756 -0.26550564
0.073525146 -0.0064741806 -0.27201363 0.02303786 -0.35872784 -0.8154961 0.24389142 -0.50173557
-0.26639777 -0.23482794 0.14590156 -0.14889589 0.22464506 -0.5915164 -0.18855035 0.0021732333
-0.8940119 -0.11623321 -0.2901777 -0.67826337 -0.17433184 -0.7757327 -0.20437138 0.35611477
-0.34554732 -0.26104233 -0.30011988 0.11931482 -0.06798672 0.028270278 -0.004076649 0.07211284
-0.107313246 0.09277537 -0.5859807 -0.55927306 0.103086285 0.22097386 -0.18597253 -0.10946553
-0.5100686 -0.14445306 -0.47885653 0.39028615 -0.028049251 -0.019048456 0.08886951 -0.6322646

model.3.weight f4 [64, 128]
00000000: 85bb 4d3e 2567 20be 68f6 dd3d 6b9f a93c
00000010: 89cc 943e 7471 6d3d 0605 863d 9c77 75bc
00000020: da77 debd 06c4 6f3e f654 f8bc c088 f6bd
00000030: 7f59 2e3d 42f9 83bd ee0c 5bbd 760b 40bc
00000040: 3dc9 653e 8b32 573b 9bd9 973c 6fe8 523d
00000050: 8af8 613d ae52 bcbd b9b2 b2bd 8574 073d
00000060: b3ce 333e 065c 9d3d f22d 4cbd a3aa e7bd
00000070: e360 523d 7a74 1d3e da6d 493e 907c 9abd
00000080: 1168 31be 0b51 eabc 2683 e53d 7de5 b1bd
00000090: b823 2d3e 9512 e13d 965f 183e 0ae2 a13c
000000a0: 061f d63d 4323 9dbd 0072 923b ac0b fd3d
000000b0: 9c09 8cbd ec2e 953d 1c11 1a3e 4577 653d
000000c0: c9a4 223e 55d2 d63d 1eeb afbd 9e19 7bbd
000000d0: 12e1 bcbc 3ef3 89bd 0ade 213d c1e9 dd3d
000000e0: f774 2b3e 8ea2 08bb d277 a43c 694c bbbd
000000f0: e64b bdba dc1c 2ebd e171 903c 6cb5 153e
00000100: 6070 b1bd 6877 8a3c f439 0ebe e26d c5bd
00000110: 8004 14be c8de 0d3c 1a5e e9bd 8617 86be
00000120: 68c5 b7bc ff23 2b3d 17bb 793d f385 073e
00000130: 2f12 c33d ff0c a63e b0fc 14bd d862 2fbd
00000140: f275 26bd 3b33 76bd f096 8d3d 03ff 24be
00000150: 9677 2c3e ddcd 6d3d 2ee2 9d3c 1c17 1f3e
00000160: 0506 003e ab8a a83c 28d2 693b 93ba 1cbd
00000170: 1551 abbd 02cd 493e ad19 083d 9522 2abe
00000180: bfa0 923d 4064 5dbe 7cd6 f13d 7ef9 bb3e
00000190: 94bc a4bd 17d7 22bd 1c66 143e afd7 41be
000001a0: 383e 033d 8023 663e d115 993b 1581 0f3d
000001b0: 4e90 65bd f559 5ebd 3356 d1bd f181 48be
000001c0: 8ef8 4bbe 46e0 1cbe d9eb 92bc 6ef1 033e
000001d0: 78bd f2bd da32 b3bd 1da5 1e3c fb0d 97bd
000001e0: 650e bbbd dc8a cdbd 8de2 773e e16a 20bd
000001f0: 5d83 10bd 2055 ee3d b828 a93d dc6b 093e
00000200: 7976 ab3e 2ac2 3ebe 76c0 463e 2efe 2e3d
00000210: 60a8 debc c675 ae3c d01f d7bc 54a3 38bd
00000220: 8bc1 97bd 7e4c 803e b07e 013d 583e 2ebd
00000230: c817 b33d a393 a2bd 36e0 24be 0cd7 3bbc
00000240: dc1d 573e d97f 02be 2957 0cbd 4104 233e
00000250: 6c38 053e 1cef 383c e9b6 5d3d 91f5 093d
00000260: 8e65 e63d 49e1 49bc bc13 433c a625 4f3d
00000270: 18e3 9abd 3495 ff3d d65f fc3d 3690 a2be
00000280: de89 4abe 8343 633c a820 ce3d 1462 f73c
00000290: 35f2 0a3e 5fac f33d fb21 023e ccbf d73c
000002a0: 5b34 ee3d 2734 73bd 21ff eb3c 2ba6 8e3e
000002b0: 578d 88bd af86 46bc a657 7d3d 239d 9f3d
000002c0: fa51 023e 6c17 1cbc 8711 1bbe 83c5 aa3d
000002d0: df98 703d 16d1 8dbd 5353 1fbd c7c7 c83d
000002e0: 9b5e c33d f044 ffbd 74cb 473c c975 aabd
000002f0: a1c1 a2bd 3bbf b0bd ce7e bcbd f6fd c63b
00000300: b54c e3bd 55d3 9a3d 224f 03be fb48 b8bd
00000310: 3491 80bd 9873 48bd 9f8d 02be aaaa 2ebe
00000320: 5ce8 03be 12f2 b23c bdb1 89bb 3834 ed3d
00000330: 8543 62bc 536d 173e a9ff 5bbc cbf8 a33d
00000340: 7de0 2ebe 0d84 d7bd 7e4b 263e 38c5 293c
00000350: e23e f93d 3fde c53d 5d15 ccbd aa27 963d
00000360: 2719 353e 832d 79bd fbfe 113e 76c3 4fbe
00000370: d1b9 18bd 883b 7b3e 0946 383d ed35 1ebe
00000380: 0d83 f33d cf50 0abe 13fc 4cba 413c 823e
00000390: 5283 923c 65ab c7bd c801 893e 5244 07be
000003a0: 420c 2e3c cd02 643e 6f7f b53d 8096 0abd
000003b0: 9bee d6bc bb9f 3ebd 641a 3ebd a45a b2bd
000003c0: 5e82 c9bd 7157 3fbe 909d 2ebe ca7d 2d3e
000003d0: d20e b7bd b5ed 533d 73a3 c7bd 39af 23bd
000003e0: f8ab 7e3d 2744 90bd 35d4 953e 196d 0ebe
000003f0: 5e6b 10be c078 463e 533e 553d 3389 a83d
0.20091064 -0.15664347 0.10838014 0.0207059 0.29062298 0.057969525 0.06543927 -0.01498213
-0.108627036 0.23414621 -0.03031395 -0.12037802 0.04256582 -0.064440265 -0.053479128 -0.0117214825
0.22440048 0.0032836522 0.01853638 0.051491197 0.055168666 -0.091954574 -0.08725495 0.033070106
0.17559318 0.07683568 -0.049848504 -0.11311843 0.05136193 0.15376464 0.19670811 -0.0754329
-0.17324854 -0.028603097 0.11206655 -0.086863495 0.16908157 0.10989872 0.14880213 0.019761104
0.10455136 -0.07672741 0.0044691563 0.12355742 -0.0683777 0.0728434 0.15045589 0.056021947
0.15883173 0.104893364 -0.08589767 -0.061303727 -0.02305654 -0.06735848 0.039518394 0.10835601
0.16743837 -0.0020848843 0.020076666 -0.091454335 -0.0014442175 -0.04250799 0.017632427 0.14619988
-0.08664012 0.01690264 -0.13889295 -0.09640099 -0.14454842 0.008659072 -0.113949016 -0.26189822
-0.022432998 0.041782375 0.06096944 0.13234691 0.095249526 0.3243179 -0.036373794 -0.042818874
-0.040639825 -0.06010745 0.06913555 -0.16112904 0.16842493 0.058057655 0.01927289 0.1553616
0.12502296 0.020573935 0.0035678241 -0.03826387 -0.083650745 0.1970711 0.03322761 -0.16614754
0.07159566 -0.21620274 0.11808488 0.36713785 -0.08043781 -0.039755907 0.14492077 -0.18929933
0.03204176 0.2247448 0.00467179 0.03503521 -0.056045823 -0.05428501 -0.10221519 -0.19580819
-0.19919035 -0.15319929 -0.017934727 0.12885067 -0.118525445 -0.087499335 0.009682921 -0.073757134
-0.09133605 -0.10036251 0.24207516 -0.039164428 -0.035281528 0.1163733 0.082597196 0.13420051
0.33488825 -0.18628755 0.19409356 0.042722873 -0.027179897 0.021296393 -0.026260287 -0.045077637
-0.07409962 0.2505836 0.03161496 -0.042539924 0.0874477 -0.07938316 -0.16101155 -0.011464845
0.21007484 -0.12744083 -0.03426281 0.15919591 0.13009804 0.011287477 0.054129515 0.033681456
0.11249839 -0.012321779 0.0119065605 0.050573014 -0.07562846 0.1247963 0.12322967 -0.3175065
-0.19779155 0.0138710765 0.100648224 0.030198134 0.13568957 0.118981116 0.12708275 0.026336573
0.1163108 -0.05937591 0.028808178 0.2786115 -0.066675834 -0.012117072 0.061851166 0.07793643
0.12726584 -0.009527069 -0.15143405 0.083384536 0.05873954 -0.069246456 -0.038897824 0.098037295
0.09539529 -0.12464321 0.012194503 -0.08323247 -0.07947088 -0.08630224 -0.092038736 0.006072755
-0.11098615 0.0755984 -0.12823156 -0.08998295 -0.06277695 -0.048938364 -0.12749337 -0.1705729
-0.12881607 0.021843944 -0.0042020963 0.115822256 -0.013810043 0.14787798 -0.013427653 0.08006438
-0.17077823 -0.105232336 0.16239735 0.010361962 0.12170197 0.09661531 -0.09965012 0.07331784
0.17685376 -0.06083442 0.14257424 -0.20289406 -0.037286583 0.24534428 0.044988666 -0.15450259
0.1189023 -0.13507389 -0.00078195444 0.25436595 0.017884884 -0.09749488 0.2675917 -0.13209656
0.01062304 0.22266693 0.08862197 -0.033834934 -0.026236823 -0.04653905 -0.046411887 -0.087086946
-0.09839319 -0.186857 -0.17052293 0.16942516 -0.089383736 0.051740367 -0.09747972 -0.039962027
0.06217572 -0.07044249 0.29263464 -0.13908805 -0.14103457 0.19382 0.05206139 0.08229294

model.3.bias f4 [64]
00000000: 2c12 09be b3c3 e8bd ea74 813e a1fe aa3c
00000010: 1449 2abb e5e3 8ebe 69e8 5f3e 20cc dbbd
00000020: e8b3 313e 8ccf 11bf 199c 5a3e 44a4 d23e
00000030: b0ff 703e 6310 0c3e 4eea a93e 6f8e c2be
00000040: db7a 9ebd 4795 60bd 60b1 023e d1fc 823e
00000050: 2dea 06be d4d5 173e ce20 e1be 185b 423e
00000060: d6d6 a73e 4c2c 493e 8642 87be 96b9 a03e
00000070: b556 d3bd 07c0 bbbe 1545 93bd f2e8 5dbd
00000080: 7c97 14be f92f 2ebe 6e13 9abb 2b5d e8bd
00000090: daf8 b23e cc3a 0abb f1c2 e83d fa9a 433e
000000a0: 76e4 853e 75f2 8e3e 0fcd 103e f89e 303e
000000b0: 9b3e 993e ccde e03e e835 b8bd d4f1 71bb
000000c0: f165 63bb 7545 923e 2e3f babd b7e1 4fbe
000000d0: 6f3f 073f 955d 013f 66ff d3bd f855 a5bd
000000e0: c0c9 c7bd 0894 323e 85e0 6d3e 3519 9abd
000000f0: ec2e 6c3e 4079 63be e339 e5be 223a 793e
-0.13385838 -0.11365452 0.2528451 0.02087337 -0.00259835 -0.27908245 0.21866001 -0.10732293
0.17353785 -0.56957316 0.21348609 0.4114095 0.23535037 0.13678126 0.33186573 -0.37999293
-0.077382766 -0.054829862 0.12762976 0.2558351 -0.13175268 0.14827663 -0.4397034 0.18980062
0.32781094 0.19645804 -0.2641794 0.3139159 -0.103192724 -0.36669943 -0.07190911 -0.054177232
-0.14510912 -0.17010488 -0.004702023 -0.113458954 0.34955484 -0.0021092175 0.11365307 0.19102088
0.26150864 0.27919355 0.14140724 0.17248142 0.29930577 0.4391998 -0.08994657 -0.0036917822
-0.0034698213 0.28568617 -0.09094082 -0.20300947 0.52831167 0.5053342 -0.10351448 -0.08073038
-0.09755278 0.17439282 0.23230179 -0.07524339 0.23064774 -0.22214222 -0.44770727 0.24338582

model.6.weight f4 [32, 64]
00000000: bc33 44be 07ae a9bd fa4b 3f3e 9ba1 273c
00000010: bf62 37be 5d59 01bd 23ea 883d 7bec fd3c
00000020: 74d8 393e a479 c2bd 6e2a 283d db07 153e
00000030: bf6e 22bd 220e 263b 1779 72bc b996 f4bd
00000040: e2b6 713d 1965 d0bd 95bc 983d 274e 023d
00000050: c12f 35be 25ed 433c 24af 7dbe c74b c33d
00000060: e2be 263e 8b56 f93d 07d1 d5bc ea6d 233e
00000070: 0130 4ebd 0621 a4bd eebe 51be b850 9c3d
00000080: 7fd2 00bd 8ef6 88bd ea38 98bd 3634 39bd
00000090: f3d6 a33d e8ec e1bc 3fa2 953d 63bd e13d
000000a0: 9913 123e d4da 0d3e e7f6 323e 991a dbbb
000000b0: 4d4f 183d a690 113e 5639 b23d 27d2 3fbc
000000c0: 5e0c cfbc 8a22 193e c20b 07be 5710 e1bd
000000d0: 5639 c3ba 5a85 453e 35fb 2fbe 0ff8 35bd
000000e0: f510 bcbc b90f 363d 63f1 2c3e e34e ff3b
000000f0: 3252 98bd 51ee 02be f5a2 b5bc 4983 273c
00000100: 12b6 013d 169d d83d b037 2cbe acd6 793e
00000110: 7fd6 0f3e 7770 b53e 7bba 05be c567 1abe
00000120: 078e f3bb 4d6e 9e3e d22a 9abd b6dc 55be
00000130: ae06 0bbe 033a a4bc e540 35bd 7def a23e
00000140: c5a3 60be 101e 243e 5035 82be 9042 73bd
00000150: 6346 f0bc c95c 22bd 919c 203e a595 63bd
00000160: bc69 9bbd 6016 6a3d ba64 983e 5d22 af3b
00000170: 2ec3 053d 2561 3abe d6de 113e e21b 0a3c
00000180: 5735 543e 5e0e bf3d a2db de3d 7c83 5b3e
00000190: 219d 683c aead ad3e 7acf 33be bc41 f6bd
000001a0: 5650 2bbd 037e 20be 9ba6 d8bd 6c8e e8bd
000001b0: 528a bdbd 71c9 3cbe d613 353c 4136 99bc
000001c0: f5eb d33c 3b0b 22be e256 54bd d316 00be
000001d0: e477 6cbe 2cd6 90bd 765f 6b3e 5ea8 27be
000001e0: 9b23 683e be67 cb3a 68bc e5bb b8ae 1b3e
000001f0: 5921 d2bc 98ee 99bd 4a12 6f3e bc99 14be
00000200: 08a0 983d d149 253e dcc1 7ebd 32f4 123e
00000210: b9e4 343d f887 823e 2c5d f93b 8e2d 13bc
00000220: a064 7cbc 7148 b03e b529 d8bd d467 53be
00000230: 8cc0 c93c 670f 94bd e9cf bbbc bb7c ad3e
00000240: 4914 05be 6300 9cbb 6e1b 03be 64c8 15be
00000250: 4f25 cd3d 6006 61bd f2d7 983e ff38 533d
00000260: 1775 f5bd 3bd3 bcbd 940f 5c3e 1712 38be
00000270: e88e 353c 3ef9 413c 6215 a63d 4d0f ffbd
00000280: 3737 a6bc 9cf0 ca3d 2022 943e a8f1 853e
00000290: 9b83 1bbe ed54 923e 522b 3abe d1e6 0cbe
000002a0: bc8a 03be 4988 b5bd e8b0 8e3d 13a4 3dbd
000002b0: 9d2e 55bd 8541 1abe c56e 9f3b b4a3 753d
000002c0: a7bb 1d3d 9877 cdbb 36c0 f93d a30c 053d
000002d0: 986a 3cbd 771e 92bd 3233 463e 5817 363d
000002e0: 96b3 9e3d 35bd 89bc 0fc3 8bbd 4bc1 093e
000002f0: 6044 01bc fb55 afbd 6b38 833e 1b9e 91bd
00000300: 2f3c 1d3e f7bc fd3d 71a3 fabd 72d6 223e
00000310: e58a 493c b6c5 953e 723d f9bd 6cf3 5dbe
00000320: 7e36 f9bd d6d4 e03e 90d7 82bd e853 07be
00000330: b99f 4abe fcce eabc 1107 18be 2997 0f3e
00000340: 8cff b1bd dc39 65bd 5f94 01be 1931 27be
00000350: 3ef2 91bb 14aa 95bd 2402 7b3e 58f9 09bd
00000360: d812 62bd 6148 fe3c d387 193e 704c 1abe
00000370: 4cbf a5ba d568 64bc e9ab fa3d e98c 873d
00000380: d6e6 a93d 314c 103e b69d 9c3e 7454 133e
00000390: d8c8 36be cbb3 803e 4b3b fdbd 75e6 7c3c
000003a0: 22b3 f4bd 71ca 5bbe dfc6 5c3d 3b18 3ebd
000003b0: 0929 10bd 14d0 26be 9807 17be de3c c63a
000003c0: 25db 053e c793 21bd dcf8 853d 1224 973c
000003d0: 73ff 79be e054 b7bd 2053 083e 85e2 823c
000003e0: 5e60 223e 3039 e4bc fa64 e4bd 78c1 55bd
000003f0: 9124 04be 7b9a 6dbd f9ae a33e b70b 4cbd
-0.1916036 -0.08285146 0.18681327 0.010231401 -0.17908762 -0.031579364 0.06685283 0.030996552
0.18148977 -0.09495857 0.04105609 0.14553778 -0.039656397 0.0025338014 -0.014799378 -0.119428106
0.0590123 -0.10175533 0.07457844 0.031812813 -0.17693998 0.011958395 -0.24773842 0.09535938
0.16283754 0.1217471 -0.026100649 0.15959898 -0.05033875 -0.08014111 -0.2048299 0.076325834
-0.031450745 -0.066876516 -0.074327305 -0.045215808 0.07999983 -0.027578786 0.073063366 0.11022451
0.14265288 0.13853008 0.17476998 -0.0066865203 0.037185002 0.14215335 0.08702342 -0.011707819
-0.025274452 0.14954582 -0.13188079 -0.10989445 -0.0014894407 0.19289151 -0.17185672 -0.04442602
-0.022957304 0.044448588 0.16888957 0.0077913865 -0.074375525 -0.12786223 -0.02217243 0.010224172
0.031667776 0.10576837 -0.16818118 0.24398297 0.14046668 0.35437366 -0.13059418 -0.15078647
-0.0074327025 0.30943528 -0.075276986 -0.20884976 -0.13576767 -0.020047193 -0.04425134 0.3182334
-0.21937473 0.16027093 -0.254313 -0.05938965 -0.029330438 -0.039639268 0.15684725 -0.055562634
-0.075885266 0.057150245 0.29764348 0.0053446726 0.03265684 -0.1820112 0.14245161 0.008429499
0.20723473 0.09328912 0.108817354 0.21436876 0.014197619 0.3392157 -0.17559615 -0.120242566
-0.04182466 -0.1567307 -0.105786525 -0.1135529 -0.09254898 -0.18436219 0.011052093 -0.018702628
0.025869349 -0.15824597 -0.05184067 -0.12508707 -0.2309261 -0.070721 0.22985634 -0.1637282
0.22669832 0.0015518588 -0.007010985 0.15203369 -0.025650667 -0.07516211 0.2334682 -0.1451177
0.074523985 0.1614144 -0.062196597 0.14350966 0.04416344 0.2549436 0.007609984 -0.008983029
-0.01540485 0.34430268 -0.1055483 -0.20645076 0.024627946 -0.072295 -0.022926288 0.33884224
-0.1299602 -0.0047607883 -0.12803432 -0.14627224 0.10016882 -0.05493772 0.29852253 0.051568028
-0.11985224 -0.092199765 0.21490318 -0.1797565 0.011081435 0.011839209 0.08109547 -0.1245409
-0.02029 0.09909174 0.28932285 0.26160932 -0.15186922 0.28580418 -0.18180588 -0.13759924
-0.12845892 -0.08863885 0.06967336 -0.04629905 -0.052046407 -0.15064056 0.0048654997 0.059970573
0.038509037 -0.00627036 0.121948645 0.032482754 -0.046000093 -0.07134717 0.19355467 0.044455856
0.07749097 -0.016813854 -0.06824314 0.13452642 -0.007889837 -0.08561321 0.2562898 -0.07110234
0.1535499 0.12389558 -0.12238205 0.15902117 0.012301181 0.29252404 -0.12169923 -0.2167489
-0.12168597 0.4391238 -0.063887715 -0.13215601 -0.19787492 -0.028663151 -0.14846446 0.14022507
-0.0869132 -0.055963382 -0.12654255 -0.16327323 -0.0044539263 -0.073078305 0.24512535 -0.03368506
-0.055193752 0.031040372 0.14993219 -0.15068221 -0.0012645512 -0.0139410095 0.122398205 0.06618673
0.082959816 0.14091565 0.30589074 0.14387685 -0.17850053 0.2513717 -0.12364825 0.015435805
-0.11948229 -0.21463944 0.053900596 -0.046409827 -0.035195384 -0.16290313 -0.1474899 0.0015124341
0.13071878 -0.039447572 0.06541607 0.018449817 -0.24413852 -0.089517355 0.1331296 0.015977154
0.15857074 -0.0278593 -0.11152072 -0.05218646 -0.12904574 -0.058008652 0.3196943 -0.04981586

model.6.bias f4 [32]
00000000: 9e29 213e 4061 113d c3d0 acbd 49c9 8dbd
00000010: d223 0cbe ce22 10be bd2d 39be 54a4 3e3e
00000020: d925 9f3e c90e 2f3e 8c50 bf3c e05a a03e
00000030: 6f7f 70bc d226 a03e 9871 433e f167 32bd
00000040: f4d6 423e 7ae2 613e 5e0f b5bc ab03 6abe
00000050: 7d12 973e 3b4a 903e 3a68 5fbe 4829 753e
00000060: 9f04 023e 4810 433d 9e51 bb3e 9082 c83e
00000070: 4959 98bd 874c a93e e419 7b3e a5f8 0dbe
0.15738532 0.035493135 -0.08438256 -0.06923158 -0.1368554 -0.14075777 -0.18083854 0.18617374
0.31083563 0.17095484 0.023353837 0.31319332 -0.01467882 0.31279618 0.19086301 -0.043556157
0.1902731 0.2205905 -0.022102054 -0.22852962 0.29506293 0.28181633 -0.21817103 0.23941529
0.12697075 0.04762295 0.36585706 0.3916211 -0.07438905 0.33066198 0.24521595 -0.13864382

model.9.weight f4 [16, 32]
00000000: 64a8 b5bd 3a7c 11be d30a bdbc cf00 b6bc
00000010: 62ad f1bc d724 f63d a65d 293e c660 eabd
00000020: e5bf 6ebe 7506 513d 570b a33c 9ae6 8d3d
00000030: 74a1 7abd 6116 46be 7294 13bc 4f4c 4e3e
00000040: bfc2 39be 0ab7 fabd fcf8 233d 7dbb 333e
00000050: 9017 5bbe 4f94 27be 4ac4 f73d 8dde 77bc
00000060: 42a9 9cbc 0d0d 52bd 3862 8a3c e7db 87bd
00000070: c288 3cbe d16b 37be 2558 67be e532 783d
00000080: acd2 cb3c 5a15 23be fe92 8cbd 09a1 3ebd
00000090: 5b1e 8f3d ad79 bebd a2b2 1fbe b1fb 9d3d
000000a0: 8207 a83d a63d 123e d68a 8dbd a343 1c3e
000000b0: 881d 34be d9ff 433e fa80 c2bd ddd2 bd3c
000000c0: 6b92 5f3e 7c38 463e 98d7 11be 8065 9bbe
000000d0: 1baf 203e c9a1 453d e8f9 6dbe b142 eb3d
000000e0: 5487 3a3e 29ef 4ebe c61a 0fbd badb 293e
000000f0: d743 4cbe 7e05 823e 2b6b 5a3e fdee f7bd
00000100: 2ba4 9ebc a74a 33be a05d a63c 038f 1bbe
00000110: 1e62 adbd 7db8 803c a8f0 84bb 6721 3ebd
00000120: a61e c03d 8114 a2bb adab 20be bc59 03bc
00000130: cd48 f1bd 9d1d 473e fda2 c5bc 38b3 0b3b
00000140: 5099 27bd a069 ddbd 1dd0 82bd 1818 6ebe
00000150: 1cfb 0e3e 636d 263e 3fec 51be fcec 053e
00000160: 4154 073e 45ba dd3d b939 063e 6619 523d
00000170: 250a a03d f5ad ec3d 905b c13c f44e a9bd
00000180: 47f2 54be 78c9 5f3e cfa5 4a3e e4ed 283e
00000190: ee4f 8bbd ba95 073e 0d89 e03d b855 8ebc
000001a0: 5b00 6d3c 9958 edbc 03d7 dc3d 8c9b b33c
000001b0: 913c d13d ddde 94bd 5035 32be a73c 653e
000001c0: f239 02be 9243 cabd 9041 243e 0e8b 823c
000001d0: f6ab 56be 3332 413e 38bb dcbd d0b3 5ebe
000001e0: 3bea 70be a152 dc3d b2d8 4abe 939f 02be
000001f0: 4432 0d3e ff62 de3d f56f 37be 7c31 7abe
00000200: e80d 15bd 6e00 133d f860 f2bd 506d cfbd
00000210: 6759 0e3d cd9c cebc 52d9 56be 5882 d43d
00000220: feb0 b9bd 4ee2 1f3e 29cb 30be 8b55 de3c
00000230: 713b 54be 6953 bbbd f0c1 0cbe a47a 42be
00000240: 9028 b5bd cf61 0f3e b2b9 e7bd 4963 e4bd
00000250: 2326 a9bd 6fd7 16be 6af9 9abd d324 2d3e
00000260: cd3b 50be 99a1 b8bd 8ade df3c 4528 e53d
00000270: 30cf 093d f7e7 2abe 31c3 f43c 6236 2bbe
00000280: 423c eebd 8731 96bd 60ad 563e de6f 4d3e
00000290: d5c2 80bc 6e57 51bd 5863 363e 8bc5 4abd
000002a0: 1d32 9cbe 2e94 5dbe 4a76 94bd 55e8 01be
000002b0: 7bf0 333e 21aa 68be c2bb 2c3d c69f b9bd
000002c0: 2fba 98bd 19a2 c1bd b4b5 4dbe 945e a73e
000002d0: e1f9 1f3c bb55 53be 9947 d7bd 0404 69be
000002e0: 6926 c53d 027f 0abc 4d6f 0dbe 2654 18be
000002f0: 387e f9ba 6ac7 4ebe 9db5 d2bd dbc0 2a3e
00000300: 3bc3 f1bd 88e0 e6bd 7dd8 02be 0cba cd3d
00000310: bf13 ee3d 95df 4dbe 211c 2bbd 477b 81bd
00000320: 2bcd 1ebe f13e ac3d dc5f d8bd d77f 86bd
00000330: beb0 143e 1889 703d 99fc 093d f879 17be
00000340: ebb5 8c3d 97f3 d8bd 0dcd 21be 264c e23d
00000350: 215b 13bc 9b31 353b 616e 0b3e 7bc9 183e
00000360: 7ef2 223e a702 f33d 6628 92bd a241 383c
00000370: 3688 473d 6379 bc3c 5c3d 50bd 3d85 a63d
00000380: a3aa e83d c7d4 3b3d 22b8 25be de23 10be
00000390: cbb3 1dbe 3e15 3cbe 091c 1cbd 53a2 1e3e
000003a0: a821 613e e217 593e a6c1 89be d7d9 063e
000003b0: a28d 69bc 13a5 13bd 72b7 a5bd 1730 72bd
000003c0: 4be0 873d 1abc cb3d accd 9ebd 5215 82be
000003d0: d885 273e b135 5a3e e7cb e6bd 9cc0 babd
000003e0: 8709 1f3e e472 58be e599 163d 77c3 453d
000003f0: 4734 edbc eedf ddbb e27a 063e b2cc 03be
-0.088700086 -0.14207545 -0.02307645 -0.022217182 -0.02950162 0.120187454 0.1653963 -0.11444239
-0.2331539 0.05103155 0.019902868 0.069287494 -0.06118913 -0.19344474 -0.00900756 0.20146297
-0.18140696 -0.12241943 0.040032372 0.1755199 -0.21395707 -0.16365169 0.12097986 -0.015128744
-0.019123677 -0.051281977 0.016892537 -0.0663374 -0.18411544 -0.17912222 -0.22592218 0.06059541
0.02488073 -0.15926114 -0.06863974 -0.046540294 0.06988212 -0.093005516 -0.15595487 0.07714022
0.08204557 0.1428133 -0.069112465 0.15260176 -0.1758939 0.19140567 -0.094972566 0.023171837
0.21833198 0.19357485 -0.14242399 -0.30350876 0.15691797 0.048249993 -0.23239863 0.1148733
0.18215686 -0.2020842 -0.034937643 0.16587725 -0.19947754 0.25394815 0.21329944 -0.1210613
-0.01936539 -0.17508946 0.020308316 -0.15191273 -0.0846598 0.01571297 -0.004057009 -0.046418574
0.09380846 -0.004946292 -0.15690489 -0.008017 -0.11781464 0.1944489 -0.02412557 0.002131654
-0.040917695 -0.10811162 -0.06387351 -0.23251379 0.13962978 0.16252665 -0.20500277 0.13078684
0.13215734 0.10826544 0.13107957 0.051293753 0.07814435 0.11556617 0.02360323 -0.08267012
-0.20795546 0.21854198 0.19789813 0.16496998 -0.06802355 0.1324071 0.1096364 -0.017374858
0.014465417 -0.02897291 0.10783198 0.021924756 0.1021663 -0.0726907 -0.1740315 0.22386418
-0.12717417 -0.09876169 0.16040635 0.015935447 -0.20964035 0.18866806 -0.10777897 -0.2174828
-0.23526852 0.10757948 -0.19809225 -0.12756185 0.13788706 0.10858726 -0.17913802 -0.2443294
-0.036390215 0.03588908 -0.118349016 -0.101282716 0.03475323 -0.025221253 -0.20981339 0.103764236
-0.09066962 0.15613672 -0.17265 0.0271404 -0.207258 -0.091467686 -0.13745856 -0.18992096
-0.08845627 0.14002155 -0.113147154 -0.1115175 -0.08259227 -0.14730619 -0.07567103 0.16908579
-0.20335312 -0.09015197 0.027327795 0.111893214 0.033644855 -0.1669005 0.02987823 -0.16719964
-0.11632587 -0.07333665 0.20964575 0.20062205 -0.015717903 -0.05110877 0.17811334 -0.049504798
-0.30506983 -0.21638557 -0.07249124 -0.12686284 0.17572205 -0.22721149 0.042171247 -0.090636775
-0.07457387 -0.09454746 -0.20088845 0.32689345 0.009764166 -0.20638172 -0.10511703 -0.22755438
0.09626467 -0.008453133 -0.13811989 -0.1487585 -0.0019034809 -0.20193258 -0.10288546 0.16675131
-0.118048154 -0.11273295 -0.12777896 0.10045251 0.1162486 -0.20104821 -0.041774873 -0.063223414
-0.15507953 0.084104426 -0.10565159 -0.06567352 0.14520547 0.058724493 0.03368816 -0.14792621
0.068706356 -0.10593336 -0.15800877 0.110496804 -0.008993895 0.0027647975 0.13616325 0.14920609
0.15912816 0.1186574 -0.07136612 0.011246117 0.048713885 0.0230071 -0.050839767 0.08130882
0.11360671 0.045857217 -0.16183522 -0.14076182 -0.15400617 -0.18367478 -0.038112674 0.1549161
0.21985495 0.21200517 -0.26905555 0.13169037 -0.014254959 -0.0360461 -0.0809163 -0.059127893
0.06634577 0.09947987 -0.077540725 -0.2540689 0.16359651 0.21309544 -0.1126936 -0.091187686
0.15530978 -0.21137577 0.03676786 0.048282113 -0.028955592 -0.0067710793 0.13132814 -0.12871054

model.9.bias f4 [16]
00000000: a5f9 c8be bcd5 6e3e 0475 933d 00e2 353d
00000010: 707c 6abc 8a73 9ebe 96d4 bd3d 7bf4 5b3e
00000020: 5005 d63d 4570 1ebe 7562 5bbe 123c f1bd
00000030: fc43 b03e 6f5d ddbd 9df4 70be 3adf 95be
-0.39252964 0.2332372 0.07200053 0.044404984 -0.014311895 -0.30947524 0.09269063 0.2147998
0.10450232 -0.15472515 -0.21424277 -0.11779036 0.34426868 -0.10808837 -0.23530813 -0.2927187

model.11.weight f4 [2, 16]
00000000: dbbd 1ebd 22c5 8d3e 52aa 3d3e 65a2 d9bd
00000010: a9e6 973d 22c5 9bbe 656b d3bd eb38 a73d
00000020: 0106 90be 8a28 b53d ef9e e93c 143f 8cbe
00000030: 024f 79bc b297 b63a 7000 de3d 3142 62be
00000040: a7d5 933e 7e26 c03d 0ca8 873d 85d7 753e
00000050: 5a5a cd3c 4495 d2bd a626 f1bd 0ab1 87be
00000060: 787c 3d3d e170 4d3e 2dd0 ab3d b3d3 f5bd
00000070: 2e79 9cbe f286 9b3e 0f3d 4c3e 2d48 9c3d
-0.03875528 0.27689463 0.18522003 -0.106266774 0.07417042 -0.30423838 -0.10323218 0.08165153
-0.2812958 0.08845623 0.028518168 -0.27391875 -0.015216591 0.0013930707 0.10839927 -0.22095563
0.2887394 0.09382342 0.06623849 0.24007995 0.025067497 -0.102823764 -0.1177495 -0.26502258
0.04626128 0.20062591 0.08389316 -0.12003269 -0.30561203 0.30376393 0.19945167 0.07630954

model.11.bias f4 [2]
00000000: d2bb a83e aa33 8fbd
0.32955796 -0.06992276
