models/ann_model.pth (torch, 70268 bytes, 26 tensors)

model.0.weight f4 [128, 22]
-0.03432058 -0.03140771 0.010514403 -0.51316154 0.07523859 0.04385058 0.005023346 0.029841337
0.12312096 -0.11545764 0.03336841 0.22243562 -0.2016679 0.036598966 0.14552565 -0.045748964
-0.004969064 -0.02576477 0.9341504 -0.004875116 -0.019829245 0.03449059 0.11147424 -0.037457265
-0.23675929 -0.24033234 0.0620272 -0.010142792 0.3436782 -0.051692367 0.08379234 -0.037401758
0.13729729 0.8288547 0.067244224 -0.17381276 0.24427576 0.05507092 -0.02501654 -0.10934372
-0.05825683 0.024694463 -0.1303244 0.097771734 0.10244753 -0.15786177 0.2466406 -0.45417663
-0.23925585 -0.01913176 0.05472988 0.113829106 -0.14240272 -0.06847082 0.018654484 0.42032158
-0.16155584 -0.06700385 0.3415331 0.18376802 0.14312588 0.1269772 -0.31066608 0.06279699
-0.09477646 0.10777005 0.007092734 0.17467666 -0.03796408 0.09010106 0.0183465 -0.059432715
0.9991246 -0.033874877 0.051755313 -0.045829725 0.05081606 0.07074165 0.02585799 0.030457644
-0.04553495 0.05274451 0.028672745 0.04283988 0.035761975 0.01105427 -0.051408406 0.1574995
0.0111518735 0.08539747 0.054885738 -0.54121095 0.067931846 -0.13749415 0.04194482 -0.21768253
0.018601622 0.038369946 0.17891686 -0.16235483 -0.010805716 -0.31530145 -0.01638745 0.018073276
1.2679955 0.09161437 0.18432166 0.15608248 0.06088386 -0.10778233 -0.027232504 -0.15084857
-0.15216027 -0.0049995147 0.13916594 -0.107433185 -0.31358406 -0.26537627 -0.13938822 0.31420612
0.004301984 0.63381094 0.21913764 0.010026999 -0.110301875 -0.031891193 0.14474566 0.073043406
-0.44999564 -0.02597181 0.0812798 -0.1251035 -0.07376071 0.01067785 -0.099629425 0.37738982
0.24320723 -0.05947183 0.3553856 -0.116709694 0.2768618 -0.21523276 -0.09898188 0.06627561
0.37982506 -0.8366663 -0.034676764 -0.05526353 -0.014820329 -0.048293393 0.12970133 -0.03061834
0.043119498 -0.102487646 -0.008114432 0.5045324 0.4624551 0.27110445 0.069615275 -0.043712527
-0.47692588 0.03592209 0.016299495 -0.01449532 0.002266586 0.15363522 0.0068524173 0.019505046
-0.027737424 0.064364396 0.0005548665 -0.04138503 0.011229779 -0.081957534 -0.0138492575 0.020338556
-0.021972517 0.09729762 -0.06541311 -0.12114406 0.06569084 -0.29244688 0.3285109 0.30182388
-0.17149563 -0.09947267 -0.44920987 -0.19551863 0.0052084406 0.2202099 -0.019180283 -0.0017944818
0.7150359 -0.088525824 -0.7028871 0.002654133 0.08492729 -0.22174624 0.034733124 -0.10931968
-0.12796041 -0.18168674 0.060450632 -4.2685988e-05 0.121252224 0.053173244 0.018129438 -0.009355116
-0.13636373 1.1313579 -0.15181644 0.0007831348 0.16002804 -0.045205507 -0.20938022 -0.051144574
-0.095992856 -0.028417272 0.21864384 -0.28899983 -0.0013633753 0.17718661 0.06906165 0.1838151
-0.121499 -0.0118606 0.93963945 -0.09986251 0.0540323 -0.018390164 -0.028741775 0.041750215
-0.043014243 -0.051630013 0.025653832 0.11166602 0.011664567 0.10070523 -0.048391636 0.11220298
0.106669515 -0.0954671 0.0060159923 -0.33245328 0.102772444 0.010664627 0.008365786 -0.25857988
0.48267555 -0.109502636 0.014282349 0.050862327 -0.05894856 -0.53802586 0.3626973 -0.2437887
00000000: bd93 0cbd 5fa5 00bd 9a44 2c3c 8e5e 03bf
00000010: b116 9a3d aa9c 333d e19a a43b d275 f43c
00000020: d826 fc3d 0e75 ecbd 50ad 083d 2ac6 633e
00000030: 0882 4ebe cce8 153d ad04 153e 4463 3bbd
00000040: 88d3 a2bb a410 d3bc 7b24 6f3f 70bf 9fbb
00000050: f170 a2bc 0146 0d3d 9b4c e43d ca6c 19bd
00000060: 0771 72be ae19 76be 3c10 7e3d f42d 26bc
00000070: 97f6 af3e 60bb 53bd 519b ab3d 9632 19bd
00000080: a997 0c3e d22f 543f 57b7 893d f9fb 31be
00000090: 6d23 7a3e 0c92 613d 7def ccbc 9aef dfbd
000000a0: b79e 6ebd 0b4c ca3c c273 05be 8c3c c83d
000000b0: 03d0 d13d 84a6 21be 5a8f 7c3e d789 e8be
000000c0: 7cff 74be 35ba 9cbc 702c 603d 3c1f e93d
000000d0: 05d2 11be 6e3a 8cbd 4ad1 983c 6434 d73e
000000e0: e56e 25be 5139 89bd 6ddd ae3e af2d 3c3e
000000f0: 978f 123e 5006 023e a00f 9fbe b59b 803d
00000100: 291a c2bd 8bb6 dc3d 2a6a e83b 70de 323e
00000110: 3980 1bbd e886 b83d 664b 963c b86f 73bd
00000120: a1c6 7f3f 62c0 0abd 61fd 533d f3b7 3bbd
00000130: 8024 503d 00e1 903d 23d4 d33c 4f82 f93c
00000140: db82 3abd a10a 583d 1be3 ea3c df78 2f3d
00000150: 267b 123d f81c 353c 9f91 52bd 8d47 213e
00000160: 59b6 363c dee4 ae3d decf 603d cd8c 0abf
00000170: da1f 8b3d 44cb 0cbe 55ce 2b3d 2be8 5ebe
00000180: 6e62 983c ce29 1d3d fb35 373e 5840 26be
00000190: 750a 31bc 316f a1be f93e 86bc 680e 943c
000001a0: ad4d a23f 51a0 bb3d d1be 3c3e 16d4 1f3e
000001b0: 5b61 793d fbbc dcbd b316 dfbc 0c78 1abe
000001c0: e7cf 1bbe f8d2 a3bb 8481 0e3e ee05 dcbd
000001d0: 178e a0be 66df 87be c9bb 0ebe a0df a03e
000001e0: a8f7 8c3b 6f41 223f 9e65 603e 4848 243c
000001f0: f3e5 e1bd 57a0 02bd 3538 143e c897 953d
00000200: d465 e6be d5c2 d4bc 0676 a63d 221b 00be
00000210: db0f 97bd 26f2 2e3c 830a ccbd 3d39 c13e
00000220: 510b 793e bc98 73bd 1af5 b53e 7e05 efbd
00000230: d4c0 8d3e fa65 5cbe 03b7 cabd 82bb 873d
00000240: 6e78 c23e c32f 56bf 3909 0ebd 035c 62bd
00000250: f7d0 72bc 4bcf 45bd 6dd0 043e 50d3 fabc
00000260: 129e 303d 0be5 d1bd 65f2 04bc 0929 013f
00000270: eac6 ec3e 34ce 8a3e 7492 8e3d e80b 33bd
00000280: a12f f4be 0b23 133d 8586 853c c77d 6dbc
00000290: 018b 143b 8d52 1d3e 3e8a e03b 0cc9 9f3c
000002a0: 9839 e3bc 7bd1 833d 7674 113a 5983 29bd
000002b0: 1bfd 373c 5ad9 a7bd ffe7 62bc 0b9d a63c
000002c0: b5ff b3bc f943 c73d 4ff7 85bd 601a f8bd
000002d0: eb88 863d 99bb 95be 9532 a83e a988 9a3e
000002e0: 8d9c 2fbe 54b8 cbbd d6fe e5be 0936 48be
000002f0: 91ab aa3b b47e 613e f81f 9dbc d134 ebba
00000300: 980c 373f 074d b5bd 69f0 33bf f6f0 2d3b
00000310: 5cee ad3d 7211 63be 5244 0e3d ffe2 dfbd
00000320: 0e08 03be 170c 3abe 159b 773d bb09 33b8
00000330: 1653 f83d 30cc 593d 3084 943c 3346 19bc
00000340: efa2 0bbe 56d0 903f c575 1bbe 494b 4d3a
00000350: 64de 233e 6929 39bd c567 56be f97c 51bd
00000360: e797 c4bd 57cb e8bc 2ce4 5f3e c9f7 93be
00000370: 49b3 b2ba 6870 353e 3270 8d3d 073a 3c3e
00000380: 78d4 f8bd f652 42bc 368c 703f b784 ccbd
00000390: f950 5d3d f8a6 96bc df73 ebbc 4602 2b3d
000003a0: b42f 30bd fe79 53bd fc27 d23c 27b1 e43d
000003b0: bd1c 3f3c 8b3e ce3d 4f36 46bd adca e53d
000003c0: 8c75 da3d 4184 c3bd cd21 c53b 5137 aabe
000003d0: 5c7a d23d b0ba 2e3c a610 093c 9564 84be
000003e0: 4021 f73e eb42 e0bd 8300 6a3c 0455 503d
000003f0: 0c74 71bd 10bc 09bf 76b3 b93e bfa3 79be

model.0.bias f4 [128]
-0.09489255 -0.05637106 0.14033166 -0.0052730157 -0.032772504 0.012943888 -0.21027826 0.14498058
-0.06678792 -0.115413696 0.11548636 -0.20021832 -0.076686576 -0.090187386 -0.15224755 -0.12886968
-0.025768774 0.0074502593 -0.053167123 0.19356786 0.0010000903 -0.0045058317 0.046657972 0.036706936
0.04160259 0.18938799 -0.08929958 -0.19260462 -0.11689083 -0.1695992 0.17656702 -0.09689033
0.004155001 -0.04491379 -0.029400395 -0.06768681 -0.09067584 -0.031267196 0.03929845 0.20590468
-0.15826629 -0.12286656 -0.014410266 -0.19158746 0.18013896 0.14107977 -0.13619135 -0.027894313
0.027419433 -0.1936272 -0.16682504 0.19074006 0.0047780187 0.20967768 -0.17034149 -0.19344653
0.03672465 0.039029576 0.01752829 -0.15106711 0.096276514 0.17331074 0.04690131 0.05576965
-0.010772825 0.13782616 0.15771145 0.0576414 0.19304301 -0.13269308 -0.114509925 0.044040788
-0.032393597 0.1931411 -0.15501004 0.1599461 0.19791016 -0.018956868 0.18695386 0.101331696
-0.039252706 0.17590632 -0.021792743 0.068895146 -0.016838506 0.07751891 -0.06361423 -0.002170239
0.02889684 -0.04022142 0.14254531 0.2011266 -0.18714571 -0.11049024 -0.012464693 -0.2030272
-0.20227717 -0.1734649 0.17925271 -0.08292942 0.13573584 0.01578682 0.19729148 -0.08636633
0.02265689 -0.054485332 0.20290504 0.17677902 0.13267599 0.10390171 -0.057367668 -0.031469487
-0.1786606 0.08211392 0.072794765 0.16892141 -0.21017146 -0.108069055 0.049431767 0.19568554
-0.019737175 -0.19727243 0.062424187 -0.04730301 -0.083484985 0.012440665 0.19561034 -0.14133763
00000000: 0657 c2bd 57e5 66bd 1ab3 0f3e 43c9 acbb
00000010: 763c 06bd 9a12 543c 2f53 57be ca75 143e
00000020: 1bc8 88bd 045e ecbd 1d84 ec3d 0806 4dbe
00000030: da0d 9dbd 2ab4 b8bd c8e6 1bbe 6af6 03be
00000040: 0919 d3bc 4e21 f43b c5c5 59bd a736 463e
00000050: 7615 833a a8a5 93bb 6e1c 3f3d 035a 163d
00000060: 7a67 2a3d edee 413e b3e2 b6bd 253a 45be
00000070: 7664 efbd 6aab 2dbe fccd 343e 706e c6bd
00000080: ad26 883b 86f7 37bd 19d9 f0bc 629f 8abd
00000090: 41b4 b9bd 0812 00bd 69f7 203d add8 523e
000000a0: 8f10 22be 77a1 fbbd 0919 6cbc 812f 44be
000000b0: 5976 383e 3777 103e bf75 0bbe 9d82 e4bc
000000c0: b89e e03c 3546 46be 2fd4 2abe 5d51 433e
000000d0: ed90 9c3b bfb5 563e 006e 2ebe d916 46be
000000e0: 966c 163d 7add 1f3d 7d97 8f3c 56b1 1abe
000000f0: 9f2c c53d 5f78 313e 971b 403d b76e 643d
00000100: 8180 30bc 4d22 0d3e 1c7f 213e 6319 6c3d
00000110: 11ad 453e b2e0 07be 2e84 eabd 1d64 343d
00000120: 26af 04bd c8c6 453e f4ba 1ebe e9c8 233e
00000130: f6a8 4a3e 6f4b 9bbc d570 3f3e fe86 cf3d
00000140: 72c7 20bd c920 343e b286 b2bc e618 8d3d
00000150: e8f0 89bc 3cc2 9e3d 2d48 82bd 923a 0ebb
00000160: 11b9 ec3c 37bf 24bd 66f7 113e 22f4 4d3e
00000170: 20a3 3fbe b548 e2bd b638 4cbc 5de6 4fbe
00000180: bf21 4fbe c8a0 31be 068e 373e e6d6 a9bd
00000190: 56fe 0a3e 5c53 813c c706 4a3e d5e0 b0bd
000001a0: f19a b93c 032c 5fbd 57c6 4f3e 8f05 353e
000001b0: 37dc 073e 6bca d43d 5cfa 6abd 26e6 00bd
000001c0: cef2 36be 582b a83d 6c15 953d bcf9 2c3e
000001d0: 3037 57be 4f53 ddbd f778 4a3d ca61 483e
000001e0: dbaf a1bc c901 4abe 81b0 7f3d cdc0 41bd
000001f0: 2dfa aabd eed3 4b3c 144e 483e d0ba 10be

model.1.weight f4 [128]
0.9862246 0.78544015 0.54317564 0.8415978 0.86988527 0.6780333 0.7026106 0.96182454
0.63317907 0.84442955 0.7920248 0.5822981 0.41981885 0.5562351 0.7896863 0.8547152
0.5066908 0.5761279 0.64389855 0.749786 1.2069612 0.8112268 0.8494323 0.9356775
0.92233765 0.50881183 0.7754186 0.661824 0.7482759 0.78535014 0.62390006 0.8093136
1.0271262 1.0534279 0.904829 0.8540744 0.78876936 0.8787932 0.6932852 0.8086237
0.84631455 0.83235544 0.81766176 0.7558187 0.7848662 0.63023084 0.8176498 0.98295397
0.55577034 0.7443292 1.0744652 1.4481995 0.92864144 0.4091959 0.7561427 0.48730823
0.5707962 0.37761822 0.49260256 0.9694058 0.873166 0.7568034 0.8638614 0.86578006
0.80307126 1.0274136 0.9077416 0.6337725 0.7780294 0.8448929 0.67576855 0.86637205
0.9922084 0.9196059 0.94882625 0.8395659 0.8683292 0.6536983 0.5795777 0.84160006
0.60359544 0.59215766 0.779134 0.90984064 0.71713865 0.8182442 0.92364734 0.80305487
0.86935514 0.7293359 0.9855897 0.97880775 0.92583185 0.7520425 0.30856946 0.734049
0.8058737 1.218681 1.2771791 0.5493405 0.78063166 0.89956874 0.71720135 0.9056302
0.642833 0.87433773 1.0658116 0.8700559 0.99929744 0.46462673 0.86305106 1.2877469
0.720433 0.724488 0.8728878 0.6466968 0.8548791 0.7049084 0.6247489 0.800368
0.72642475 0.59578234 0.6349739 0.7754696 1.0185813 0.7741099 0.7257172 0.60430604
00000000: 3779 7c3f 9b12 493f 8f0d 0b3f f472 573f
00000010: cdb0 5e3f 9793 2d3f 4ade 333f 223a 763f
00000020: 0618 223f 892c 583f 23c2 4a3f 7d11 153f
00000030: 7ff2 d63e 6c65 0e3f e228 4a3f 9ece 5a3f
00000040: 7db6 013f 1e7d 133f 89d6 243f faf1 3f3f
00000050: b47d 9a3f 8fac 4f3f 6574 593f 9088 6f3f
00000060: 521e 6c3f 7e41 023f d581 463f 4c6d 293f
00000070: 028f 3f3f b50c 493f eab7 1f3f 2d2f 4f3f
00000080: df78 833f bad6 863f e0a2 673f 9fa4 5a3f
00000090: caec 493f 97f8 603f 247b 313f f601 4f3f
000000a0: 12a8 583f 3f15 553f 4852 513f 567d 413f
000000b0: feec 483f cf56 213f 7f51 513f dfa2 7b3f
000000c0: f746 0e3f 5c8c 3e3f 1388 893f 9a5e b93f
000000d0: 72bb 6d3f 2082 d13e 9192 413f 7780 f93e
000000e0: b31f 123f 2d57 c13e 6736 fc3e fa2a 783f
000000f0: cf87 5f3f debd 413f 0526 5d3f c3a3 5d3f
00000100: 1496 4d3f 4a82 833f c161 683f ea3e 223f
00000110: ef2c 473f e74a 583f 2bff 2c3f 8fca 5d3f
00000120: 5f01 7e3f 4b6b 6b3f 47e6 723f caed 563f
00000130: d34a 5e3f c658 273f 345f 143f 1a73 573f
00000140: 3b85 1a3f a597 173f 5375 473f 51eb 683f
00000150: 6696 373f 7478 513f 2774 6c3f 0195 4d3f
00000160: 0f8e 5e3f c2b5 3a3f 9b4f 7c3f 2593 7a3f
00000170: 5103 6d3f db85 403f d1fc 9d3e a3ea 3b3f
00000180: bd4d 4e3f bdfd 9b3f 9b7a a33f 94a1 0c3f
00000190: 7ad7 473f 234a 663f 829a 373f 61d7 673f
000001a0: b490 243f 99d4 5f3f 846c 883f fcbb 5e3f
000001b0: f5d1 7f3f 8ee3 ed3e eaf0 5c3f e4d4 a43f
000001c0: 4c6e 383f 0c78 393f 9375 5f3f ec8d 253f
000001d0: 5bd9 5a3f e074 343f 8bef 1f3f ebe4 4c3f
000001e0: f9f6 393f 3185 183f a68d 223f 2d85 463f
000001f0: df60 823f 112c 463f 9ac8 393f cdb3 1a3f

model.1.bias f4 [128]
-0.68276703 -0.46871364 -0.23310952 -0.58097696 -0.67643875 -0.54294795 -0.41007328 -0.24740468
-0.86554873 -0.7655129 -0.97000825 -0.77979904 -0.5649274 -0.7199148 -0.29642373 -0.8441146
-0.5394118 -0.23621574 -1.0295687 -0.4867399 -0.43252194 0.11505671 -0.8619949 -0.8758649
-0.399982 -0.17363968 -0.6845166 -0.22548927 -0.38235617 -1.0810764 -0.4573076 -0.44895297
-0.6594609 -0.34977603 -0.95405155 -0.77882504 -0.7854707 -0.0229772 -0.4762128 -0.3660783
-0.2566206 -1.2667414 -0.95939535 -0.39749396 -0.89425606 -0.8790505 -0.5172744 -0.73264706
-0.14766245 -0.35831025 -0.36878115 -0.75320303 -0.7347635 -0.23089126 -0.42419314 -0.32572147
-0.6738939 -0.33803597 -0.4445994 -0.38988224 -0.70780796 -0.2990667 -0.7454992 -0.6315611
-0.21375926 -0.72987294 -1.4575275 -0.45577526 -0.098836854 -0.90109676 -0.6649309 -1.1815014
-0.6004115 -0.72985977 -0.62328315 -0.33187157 -0.68417543 -0.8388918 -0.6629809 -0.9032029
-0.45366457 -0.6871741 -0.48393628 -0.67681175 -0.61145854 -1.2876366 -1.3915392 -0.44341817
-0.39851886 -0.9413228 -0.39988065 -0.64770406 -1.0891023 -0.35486016 0.065643996 -0.5671425
-0.78887445 -0.35285595 -0.4832427 -0.5089373 -0.46358046 -1.4477175 -0.77357644 -1.4445828
-0.57194203 -0.66427344 -0.45719343 -0.5813981 -0.89864874 -0.384118 -1.139691 -0.9382461
-0.8863944 -0.6789944 -0.5156998 -0.5826805 -0.44155735 -0.5301539 -0.22484374 -0.8983607
-0.12703806 -0.06090638 -0.49875724 -0.45084155 -0.43054298 -0.89886075 -0.39116567 -0.7058564
00000000: d2c9 2ebf 3cfb efbe 43b4 6ebe e8ba 14bf
00000010: 172b 2dbf a3fe 0abf 20f5 d1be a757 7dbe
00000020: 9a94 5dbf a7f8 43bf 7652 78bf e9a0 47bf
00000030: 159f 10bf 564c 38bf dac4 97be e517 58bf
00000040: e416 0abf 8ae2 71be e8c8 83bf f935 f9be
00000050: 8473 ddbe daa2 eb3d b3ab 5cbf af38 60bf
00000060: 71ca ccbe 9ace 31be 7b3c 2fbf a9e6 66be
00000070: 30c4 c3be b660 8abf 3924 eabe 2add e5be
00000080: 6ed2 28bf d815 b3be b93c 74bf 1461 47bf
00000090: 9c14 49bf ae3a bcbc 2ad2 f3be 9d6e bbbe
000000a0: c663 83be 9524 a2bf ef9a 75bf 5484 cbbe
000000b0: f7ed 64bf 7409 61bf 186c 04bf c28e 3bbf
000000c0: d334 17be 7174 b7be e2d0 bcbe ead1 40bf
000000d0: 7619 3cbf c26e 6cbe d82f d9be f7c4 a6be
000000e0: 5084 2cbf 0d13 adbe 88a2 e3be a59e c7be
000000f0: e732 35bf 451f 99be 09d9 3ebf fdad 21bf
00000100: b5e3 5abe f4d8 3abf 4390 babf 605b e9be
00000110: fa6a cabd 47ae 66bf e938 2abf 703b 97bf
00000120: 91b4 19bf 17d8 3abf 7c8f 1fbf 12eb a9be
00000130: 1f26 2fbf 9dc1 56bf 1eb9 29bf 4e38 67bf
00000140: b946 e8be a4ea 2fbf 7fc6 f7be 8943 2dbf
00000150: 8c88 1cbf 47d1 a4bf f51d b2bf b507 e3be
00000160: aa0a ccbe 88fa 70bf 28bd ccbe efcf 25bf
00000170: b467 8bbf 3bb0 b5be 5c70 863d 4030 11bf
00000180: adf3 49bf 89a9 b4be 966b f7be b749 02bf
00000190: 6b5a edbe cf4e b9bf 1b09 46bf 17e8 b8bf
000001a0: cb6a 12bf d30d 2abf 4215 eabe 82d6 14bf
000001b0: d80d 66bf 1dab c4be 65e1 91bf e530 70bf
000001c0: beea 62bf 94d2 2dbf e704 04bf 8d2a 15bf
000001d0: ce13 e2be 2ab8 07bf 703d 66be f8fa 65bf
000001e0: 4416 02be f878 79bd 1c5d ffbe b4d4 e6be
000001f0: 2170 dcbe bd1b 66bf de46 c8be 01b3 34bf

model.1.running_mean f4 [128]
-0.09782846 -0.0588275 0.1385244 -0.0067188907 -0.033749633 0.013178479 -0.20893905 0.14498626
-0.06417776 -0.11767647 0.1139502 -0.19877219 -0.076567315 -0.08879556 -0.14932774 -0.12757711
-0.02667712 0.005512181 -0.051019516 0.19434032 -0.00014439608 -0.0027196961 0.0457604 0.03497944
0.04270325 0.18970823 -0.08754629 -0.19313796 -0.11761264 -0.16858938 0.17710653 -0.09799517
0.0060503273 -0.044769514 -0.031026656 -0.06782098 -0.0925312 -0.031416602 0.03754122 0.20630069
-0.1571811 -0.12168432 -0.015666397 -0.1918352 0.17966825 0.14197206 -0.13450705 -0.027427243
0.027779128 -0.19372228 -0.16473615 0.18945703 0.0046084356 0.2096539 -0.17145453 -0.19378774
0.037937943 0.040061776 0.016954552 -0.15045695 0.09657646 0.17390803 0.04652681 0.052955877
-0.010414069 0.13910538 0.1586693 0.05794738 0.19539465 -0.13214587 -0.112651415 0.04353915
-0.032941993 0.1919851 -0.1552539 0.1601597 0.19821148 -0.019352345 0.18845665 0.1007082
-0.041517563 0.17698947 -0.020833965 0.07150618 -0.016819436 0.078246556 -0.06282709 -0.004121243
0.028344868 -0.041825727 0.14207278 0.19945627 -0.18716785 -0.109794185 -0.010222339 -0.2039711
-0.20205013 -0.1721919 0.18119545 -0.08330683 0.13416722 0.01677343 0.19815049 -0.085424356
0.02227168 -0.056266416 0.20311137 0.17800511 0.13181072 0.10377431 -0.058744024 -0.032884154
-0.17809471 0.08407124 0.07278769 0.17228182 -0.20729794 -0.108165465 0.05141626 0.1965429
-0.018539857 -0.19726178 0.06334419 -0.049662195 -0.0847777 0.012302497 0.19585323 -0.14121166
00000000: 4a5a c8bd 1bf5 70bd 57d9 0d3e 242a dcbb
00000010: 0e3d 0abd 8cea 573c 1ef4 55be 4777 143e
00000020: a16f 83bd 5c00 f1bd b95e e93d f08a 4bbe
00000030: 53cf 9cbd 72da b5bd 5fe9 18be 93a3 02be
00000040: fa89 dabc 879f b43b d7f9 50bd 2601 473e
00000050: 0769 17b9 ee3c 32bb 426f 3b3d 9a46 0f3d
00000060: 9ae9 2e3d e042 423e 784b b3bd f5c5 45be
00000070: e5de f0bd b2a2 2cbe 6a5b 353e b1b1 c8bd
00000080: d341 c63b 3d60 37bd 9d2b febc bae5 8abd
00000090: ff80 bdbd b2ae 00bd d3c4 193d 7d40 533e
000000a0: 15f4 20be a135 f9bd d156 80bc 7270 44be
000000b0: f4fa 373e 2061 113e 37bc 09be 19af e0bc
000000c0: 0e91 e33c 225f 46be 98b0 28be 0601 423e
000000d0: 5c02 973b 83af 563e c791 2fbe 4b70 46be
000000e0: d164 1b3d d117 243d 46e4 8a3c 6311 1abe
000000f0: e1c9 c53d f214 323e e592 3e3d 43e8 583d
00000100: c59f 2abc a471 0e3e 347a 223e 3b5a 6d3d
00000110: 8915 483e 3f51 07be c9b5 e6bd 1c56 323d
00000120: 2fee 06bd be97 443e e1fa 1ebe e800 243e
00000130: f3f7 4a3e cf88 9ebc c8fa 403e 1a40 ce3d
00000140: 520e 2abd ba3c 353e feab aabc d571 923d
00000150: eac8 89bc bb3f a03d 7dab 80bd 7e0b 87bb
00000160: 7f33 e83c 7451 2bbd 877b 113e 443e 4c3e
00000170: eea8 3fbe c6db e0bd 997b 27bc cddd 50be
00000180: 3be6 4ebe 1353 30be 4d8b 393e c59c aabd
00000190: 2263 093e 6f68 893c f6e7 4a3e f7f2 aebd
000001a0: 1973 b63c 9d77 66bd 6dfc 4f3e f946 363e
000001b0: 64f9 063e a087 d43d 939d 70bd 89b1 06bd
000001c0: 765e 36be 8b2d ac3d b611 953d a56a 303e
000001d0: e945 54be db85 ddbd db99 523d 8b42 493e
000001e0: e6e0 97bc fefe 49be 99ba 813d 966a 4bbd
000001f0: ee9f adbd 6a90 493c c08d 483e ca99 10be

model.1.running_var f4 [128]
1.4462047 1.3340383 1.1189663 1.1706868 2.0668685 0.69228905 1.0248798 0.5190486
0.80710423 1.3891858 0.9721144 0.6166963 0.92128706 1.4220376 1.2352254 0.92695415
0.5775183 0.8081524 0.6214378 0.67705345 0.44091362 0.9991385 1.2745097 1.0942023
1.2010103 0.9608593 0.60784984 0.60642403 1.0825158 1.2137581 0.83459026 1.4157735
2.1414902 0.9303735 0.4093532 1.0434448 1.3969412 0.68713385 0.677317 0.5416103
0.528244 1.3912308 0.7754257 0.89095825 0.8828724 1.5293709 1.5390469 1.1722904
1.6466157 0.6290583 0.8032945 0.6946745 1.7800919 0.52362174 0.9003827 0.77503735
0.69594836 1.4154664 0.7485636 1.2367074 0.50793374 0.4581301 0.51316535 1.0883963
1.3821702 1.4613307 1.1725066 0.6435641 0.5765606 1.4615098 1.3360844 1.390502
1.1859914 0.70618755 1.4432201 0.70935863 1.6940982 0.8073445 0.98337036 0.6959114
1.263472 0.72964567 0.4701937 1.7680602 0.5031675 0.86565316 1.0629783 1.4086407
0.61331975 1.1041327 0.8185304 0.9906 0.9184964 1.2233666 0.91419125 0.67642224
1.324084 1.1663673 1.19461 1.1589248 0.89662176 1.6361177 1.3110461 1.3046762
0.7807492 1.252851 0.9458106 0.7056197 1.1470243 0.86694074 0.69664633 1.1937743
0.5624348 0.9449535 0.86604124 0.86612076 1.570166 1.3121551 1.4977945 0.8042547
0.7026017 0.55921626 0.8193997 1.1158944 2.1679256 0.74485934 0.7704079 0.68032205
00000000: 3c1d b93f c4c1 aa3f 4a3a 8f3f 11d9 953f
00000010: 9347 0440 db39 313f 432f 833f 5ee0 043f
00000020: 629e 4e3f d7d0 b13f 7ddc 783f cfdf 1d3f
00000030: 78d9 6b3f 5405 b63f de1b 9e3f de4c 6d3f
00000040: 3dd8 133f 13e3 4e3f 8c16 1f3f 6053 2d3f
00000050: 6ebf e13e 8ac7 7f3f 2223 a33f d20e 8c3f
00000060: b5ba 993f e0fa 753f 0c9c 1b3f 9b3e 1b3f
00000070: e18f 8a3f 6d5c 9b3f b5a7 553f 1138 b53f
00000080: 2d0e 0940 f52c 6e3f be96 d13e 998f 853f
00000090: f8ce b23f 01e8 2f3f a664 2d3f f9a6 0a3f
000000a0: 003b 073f da13 b23f 4c82 463f d715 643f
000000b0: ed03 623f 6dc2 c33f 7dff c43f 9d0d 963f
000000c0: 4ec4 d23f f709 213f b5a4 4d3f 30d6 313f
000000d0: 0dda e33f 130c 063f 7b7f 663f d968 463f
000000e0: ac29 323f 012e b53f dda1 3f3f 6e4c 9e3f
000000f0: f207 023f 0790 ea3e ce5e 033f 9250 8b3f
00000100: f4ea b03f e20c bb3f b214 963f 9ec0 243f
00000110: 7a99 133f c112 bb3f d004 ab3f f8fb b13f
00000120: 91ce 973f b5c8 343f 70bb b83f 8798 353f
00000130: 36d8 d83f 21ae 4e3f 29be 7b3f 4027 323f
00000140: 73b9 a13f 0fca 3a3f 3bbd f03e cc4f e23f
00000150: 96cf 003f 729b 5d3f ac0f 883f 574e b43f
00000160: 8602 1d3f 3854 8d3f 358b 513f f697 7d3f
00000170: 9422 6b3f 4797 9c3f 7008 6a3f 022a 2d3f
00000180: 967b a93f 864b 953f fbe8 983f a657 943f
00000190: 0189 653f 4e6c d13f 5cd0 a73f a1ff a63f
000001a0: 2edf 473f 6c5d a03f a520 723f 7ea3 343f
000001b0: b1d1 923f d4ef 5d3f 6a57 323f 99cd 983f
000001c0: bafb 0f3f 79e8 713f e1b4 5d3f 17ba 5d3f
000001d0: 33fb c83f b3f4 a73f bbb7 bf3f a3e3 4d3f
000001e0: b4dd 333f cc28 0f3f 2ec4 513f a1d5 8e3f
000001f0: 4bbf 0a40 1aaf 3e3f 7439 453f 9629 2e3f

model.4.weight f4 [64, 128]
0.09714057 0.01753648 0.040016916 -0.06646152 0.019596735 -0.010356661 -0.16221394 -0.0057059573
0.14821166 0.124179445 0.16177644 0.05353168 -0.0441879 -0.056384683 0.05529219 -0.081283644
-0.015638152 -0.31607628 -0.03190849 0.048214033 -0.21140756 -0.0337431 0.24137431 0.03140228
-0.12658477 0.016961852 -0.0334083 -0.15367192 -0.017944891 -0.11168334 0.012104989 0.023517437
0.061939556 0.041845523 0.11382024 0.047389183 0.042509995 -0.06387349 0.086448364 -0.098677196
-0.13546069 -0.1689006 -0.055825837 -0.19192551 0.20630932 0.060806412 0.11938552 -0.2757798
-0.019975962 -0.21505833 -0.025022203 -0.18232827 0.046171647 -0.15604803 -0.010339578 -0.11902763
-0.037708465 0.058256105 0.022681283 -0.07803875 0.03774855 -0.182431 0.03129916 -0.31584942
-0.1140986 0.037034273 -0.26638293 0.026642287 0.0029524195 0.257235 -0.22763133 -0.10912106
0.02861942 -0.0493371 0.022502525 -0.018309472 0.074370034 -0.031870782 -0.0030695226 -0.08903818
-0.04343831 -0.14851215 -0.011526456 -0.010502826 -0.030825026 -0.106081404 -0.13132234 0.050619952
0.01363637 0.22828376 -0.24569707 0.070726015 -0.24159713 -0.12739918 -0.008138217 -0.15523572
0.051173564 -0.15860558 -0.016996363 0.058326837 0.0905966 -0.08060347 -0.16419928 -0.19891697
-0.27229747 -0.021133957 -0.11863696 -0.07946836 -0.045013364 0.06460334 -0.042272195 0.099430874
0.03157328 -0.010418982 -0.21631561 -0.13774009 0.089076735 0.08680889 -0.21552779 0.017823039
-0.16977976 0.032506354 -0.032067586 0.015394461 0.026463859 0.18249218 -0.07598099 -0.028059358
-0.21400233 0.034006663 0.016204745 -0.10712307 0.045550276 0.068829976 0.10047289 0.0016074068
-0.003090825 0.22335815 -0.0789482 0.069293834 -0.14961901 -0.037954345 0.024447234 0.37536266
0.053113814 -0.09727467 0.1618766 -0.13383763 -0.17164703 -0.01840752 -0.38491094 0.04127825
-0.1389659 -0.041114345 -0.17967442 0.033380885 0.06905926 -0.40651554 0.07948236 -0.07107718
-0.021291269 0.045000635 -0.10863786 -0.1455316 -0.043731138 -0.2629335 -0.1746718 -0.10916194
-0.12550545 -0.0974349 -0.070340365 -0.20382045 -0.020769402 0.07704254 -0.15084647 -0.28816512
-0.019114232 -0.16073665 -0.076773584 -0.1058716 0.05924767 -0.048501648 -0.015967837 -0.055692337
-0.43786785 -0.00133518 -0.11586533 -0.0031187471 -0.01290638 -0.09706874 -0.23652276 -0.31258044
-0.08223729 -0.076969445 -0.037216164 0.07924231 0.0012269064 -0.40734234 -0.070009105 -0.21744628
-0.006911472 -0.2753493 0.03649504 -0.002917018 0.28879067 -0.4107328 -0.015832743 -0.1756991
0.005036528 -0.1941613 0.04682052 -0.06924651 -0.028753117 -0.30039313 -0.2757655 0.02540384
0.014775039 0.06241948 -0.24075384 0.047495045 -0.056144286 -0.15943141 0.012106372 -0.20789836
0.3630827 -0.11472145 -0.028808674 -0.26251784 0.07999664 -0.09286132 -0.09821251 -0.13037834
-0.08934415 0.0074959025 0.0141192535 0.01900455 -0.18658148 0.02259065 -0.07511819 0.11760143
-0.026982715 -0.10681709 -0.1722524 0.029351944 0.017241213 -0.215161 -0.016490042 0.28845
-0.273103 -0.28222775 -0.13189228 -0.019498892 0.15818344 0.17802618 0.12213507 -0.1859126
00000000: a3f1 c63d aaa8 8f3c c7e8 233d fa1c 88bd
00000010: 5589 a03c fcae 29bc 691b 26be 0af9 babb
00000020: ccc4 173e cb51 fe3d b9a8 253e 0944 5b3d
00000030: 5ffe 34bd a0f3 66bd 107a 623d 0a78 a6bd
00000040: 951b 80bc c0d4 a1be 7ab2 02bd 147c 453d
00000050: 397b 58be 3436 0abd d42a 773e ad9f 003d
00000060: 709f 01be 95f3 8a3c 24d7 08bd 2c5c 1dbe
00000070: 2a01 93bc 3cba e4bd 0154 463c a4a7 c03c
00000080: 55b4 7d3d 3666 2b3d 961a e93d 291b 423d
00000090: f61e 2e3d 1bd0 82bd d70b b13d 4517 cabd
000000a0: 35b6 0abe 47f4 2cbe a2a9 64bd 1f88 44be
000000b0: c042 533e 2510 793d 6580 f43d 0333 8dbe
000000c0: a1a4 a3bc 4038 5cbe 5dfb ccbc 43b4 3abe
000000d0: 7b1e 3d3d 0ecb 1fbe 5567 29bc c2c4 f3bd
000000e0: 3174 1abd f49d 6e3d 19ce b93c c8d2 9fbd
000000f0: 399e 1a3d 31cf 3abe 8c33 003d 04b7 a1be
00000100: 87ac e9bd 40b1 173d 5863 88be ed40 da3c
00000110: 617d 413b 4eb4 833e 3018 69be dd7a dfbd
00000120: 4673 ea3c b315 4abd 3757 b83c bffd 95bc
00000130: 514f 983d f08a 02bd 0b2a 49bb a659 b6bd
00000140: 5fec 31bd 9213 18be 76d9 3cbc 0c14 2cbc
00000150: c484 fcbc 3541 d9bd 5d79 06be de56 4f3d
00000160: 156b 5f3c 38c3 693e 0398 7bbe cdd8 903d
00000170: 3d65 77be ee74 02be 2856 05bc 1df6 1ebe
00000180: 5f9b 513d 8069 22be f53b 8bbc 1fe8 6e3d
00000190: b68a b93d 6f13 a5bd db23 28be e4b0 4bbe
000001a0: 936a 8bbe 1f21 adbc eff7 f2bd 4fc0 a2bd
000001b0: ef5f 38bd c24e 843d 9c25 2dbd 6aa2 cb3d
000001c0: fc52 013d 61b4 2abc d781 5dbe bd0b 0dbe
000001d0: dd6d b63d dcc8 b13d 51b3 5cbe 9f01 923c
000001e0: bfda 2dbe 6225 053d 4d59 03bd 0d39 7c3c
000001f0: bcca d83c 3bdf 3a3e ec9b 9bbd bddc e5bc
00000200: 6d23 5bbe 924a 0b3d d0bf 843c 5763 dbbd
00000210: ed92 3a3d bbf6 8c3d bbc4 cd3d 9faf d23a
00000220: 708f 4abb 00b8 643e 98af a1bd ede9 8d3d
00000230: ba35 19be 0476 1bbd 9145 c83c 892f c03e
00000240: df8d 593d f137 c7bd fbc2 253e bb0c 09be
00000250: 3dc4 2fbe 5ecb 96bc 0c13 c5be 6213 293d
00000260: 144d 0ebe 8467 28bd 92fc 37be 65ba 083d
00000270: f16e 8d3d ce22 d0be a6c7 a23d ea90 91bd
00000280: 076b aebc 9652 383d 877d debd 3c06 15be
00000290: 6c1f 33bd 389f 86be 2add 32be 4c90 dfbd
000002a0: 8084 00be f38b c7bd 9c0e 90bd 4fb6 50be
000002b0: 9824 aabc 7bc8 9d3d 7f77 1abe 618a 93be
000002c0: 7395 9cbc 2698 24be 783b 9dbd 36d3 d8bd
000002d0: afad 723d aaa9 46bd fbce 82bc a61d 64bd
000002e0: 3730 e0be 3501 afba cd4a edbd e563 4cbb
000002f0: 4875 53bc facb c6bd 0633 72be 8b0a a0be
00000300: 066c a8bd 28a2 9dbd fa6f 18bd cb49 a23d
00000310: 26d0 a03a 2d8f d0be ef60 8fbd 3daa 5ebe
00000320: a179 e2bb 95fa 8cbe d37b 153d 712b 3fbb
00000330: 5fdc 933e 924b d2be abb3 81bc 77ea 33be
00000340: 7609 a53b 38d2 46be e0c6 3f3d 1dd1 8dbd
00000350: a88b ebbc 21cd 99be 2331 8dbe b71b d03c
00000360: 0113 723c 92ab 7f3d 2d88 76be 2a8a 423d
00000370: 8df7 65bd fd41 23be ce59 463c 4fe3 54be
00000380: fae5 b93e 14f3 eabd 2b00 ecbc bd68 86be
00000390: 47d5 a33d 132e bebd a423 c9bd e681 05be
000003a0: 11fa b6bd 30a0 f53b 7154 673c 6eaf 9b3c
000003b0: 370f 3fbe 0710 b93c 91d7 99bd 05d9 f03d
000003c0: db0a ddbc ebc2 dabd ef62 30be 7d73 f03c
000003d0: 723d 8d3c 2a53 5cbe 2016 87bc b8af 933e
000003e0: 28d4 8bbe 2880 90be c50e 07be 24bc 9fbc
000003f0: d7fa 213e 7f4c 363e f421 fa3d df5f 3ebe

model.4.bias f4 [64]
-0.046671644 -0.07663301 0.039118517 -0.055828616 0.0827184 -0.010272662 -0.073068455 -0.062368196
0.04446083 -0.054821312 0.04724501 -0.003915726 0.0626635 -0.04898118 0.053979207 0.006991184
-0.02139522 0.00199844 0.08112081 0.030129218 -0.026451757 -0.058651503 0.08391917 -0.06115147
-0.07762591 0.019426066 0.0358634 0.041188944 0.009789573 0.007769133 0.010971824 -0.02677234
0.07952679 -0.0443135 0.08013332 -0.01580262 -0.015986653 0.019225612 -0.071978405 -0.03816749
-0.07998436 -0.04169806 0.07391227 0.08618888 -0.011019928 0.028729366 0.078359544 0.0785094
0.037187554 -0.0064569158 0.017281765 0.022160375 -0.052199636 0.0560441 -0.0017930483 -0.061893597
-0.021220414 0.014622964 -0.04755334 -0.0071365167 0.005112322 -0.051816575 -0.04290969 0.03962243
00000000: c42a 3fbd c4f1 9cbd bd3a 203d 8cac 64bd
00000010: 4468 a93d ab4e 28bc eaa4 95bd cb75 7fbd
00000020: 8f1c 363d 508c 60bd fc83 413d 7e4f 80bb
00000030: b955 803d 7da0 48bd 4d19 5d3d 4d16 e53b
00000040: 0745 afbc 42f8 023b ab22 a63d 8dd1 f63c
00000050: 5bb1 d8bc 8f3c 70bd d0dd ab3d f779 7abd
00000060: 55fa 9ebd 6a23 9f3c 80e5 123d bdb5 283d
00000070: 7264 203c 3694 fe3b 2ac3 333c ab51 dbbc
00000080: f1de a23d 1382 35bd f01c a43d 7f74 81bc
00000090: 71f6 82bc 087f 9d3c 6a69 93bd 8455 1cbd
000000a0: d7ce a3bd 96cb 2abd 515f 973d cc83 b03d
000000b0: ee8c 34bc d959 eb3c f87a a03d 89c9 a03d
000000c0: fa51 183d 8994 d3bb 7d92 8d3c ad89 b53c
000000d0: 49cf 55bd 808e 653d b804 ebba 2484 7dbd
000000e0: 6fd6 adbc 2895 6f3c 4bc7 42bd 71d9 e9bb
000000f0: 4485 a73b 9e3d 54bd 12c2 2fbd 214b 223d

model.5.weight f4 [64]
0.78772414 0.93404496 0.8131915 0.68675905 0.8843868 0.8838284 0.8916678 1.014732
0.75423765 0.8711497 0.98864776 1.0627495 1.2269639 0.9067182 1.0898136 0.8097166
0.9780174 0.65926427 0.7400097 0.9159211 0.7861501 0.9046766 0.53368783 0.8610567
0.5195263 1.0154687 0.57293355 0.75625336 0.88048124 0.48733288 0.6542599 0.8249757
0.93277216 0.73453397 0.9889649 0.8612464 0.9363418 0.94254524 0.7370004 0.8675818
0.8625628 0.8890342 0.93372756 0.8674165 1.0063434 1.012605 0.6949563 0.88054305
0.91707516 0.9635322 0.950798 0.7516958 0.93688893 0.7913327 0.8866408 0.88134265
0.7877313 0.843238 0.97533137 0.7041932 0.8137389 0.96850294 0.9510149 0.817212
00000000: 4aa8 493f 921d 6f3f 512d 503f 71cf 2f3f
00000010: 2c67 623f 9442 623f 5744 643f bde2 813f
00000020: b815 413f ab03 5f3f 0518 7d3f 2d08 883f
00000030: 270d 9d3f af1e 683f 037f 8b3f 9649 4f3f
00000040: 595f 7a3f 8bc5 283f 4771 3d3f ce79 6a3f
00000050: 2241 493f e398 673f c49f 083f 366e 5c3f
00000060: adff 043f e1fa 813f c6ab 123f d299 413f
00000070: 3867 613f b283 f93e 947d 273f 9c31 533f
00000080: 28ca 6e3f 6b0a 3c3f ce2c 7d3f a57a 5c3f
00000090: 19b4 6f3f a54a 713f 0fac 3c3f d719 5e3f
000000a0: ead0 5c3f bf97 633f c508 6f3f 020f 5e3f
000000b0: dccf 803f 0a9d 813f a8e8 313f 456b 613f
000000c0: 70c5 6a3f 0caa 763f 7f67 733f 236f 403f
000000d0: f4d7 6f3f c894 4a3f e4fa 623f ac9f 613f
000000e0: c2a8 493f 72de 573f 51af 793f 0146 343f
000000f0: 3151 503f cfef 773f b675 733f ce34 513f

model.5.bias f4 [64]
-0.5594081 -0.7754797 -0.68189853 -0.4496039 -0.25089693 -0.4485901 -0.6792439 -0.6112525
-0.47719952 -0.5076586 -0.63222694 -0.826681 -0.731701 -0.25411916 -0.7589196 -0.43802735
-0.5663033 -0.3736642 -0.7026139 -0.55928046 -0.34289977 -0.6940157 -0.052101187 -0.7360278
-0.15986499 -0.69672203 -0.63661134 -0.28869864 -0.8030927 -0.18309876 -0.42795545 -0.57140595
-0.67852575 -0.51741385 -0.53867954 -0.2765044 -0.7532496 -0.45929694 -0.5379904 -0.5035306
-0.3607549 -0.56906724 -0.82290316 -0.5638567 -0.60177755 -0.91458046 -0.5450081 -0.23796552
-0.63896465 -1.0425719 -0.7578137 -0.65745807 -0.33614686 -0.40642312 -0.6942324 -0.42122823
-0.57796186 -0.45831564 -0.5629161 -0.3647031 -0.5381436 -0.58643466 -0.7815312 -0.5117901
00000000: 5f35 0fbf d685 46bf e790 2ebf 7b32 e6be
00000010: 9075 80be 9aad e5be eee2 2dbf 0b7b 1cbf
00000020: 7f53 f4be eaf5 01bf a0d9 21bf 5ea1 53bf
00000030: c250 3bbf e81b 82be 8e48 42bf 1f45 e0be
00000040: 41f9 10bf ea50 bfbe 81de 33bf 012d 0fbf
00000050: 8f90 afbe 03ab 31bf 0e68 55bd 516c 3cbf
00000060: a6b3 23be 605c 32bf f6f8 22bf 4fd0 93be
00000070: 7c97 4dbf 3e7e 3bbe fa1c dbbe a947 12bf
00000080: ddb3 2dbf 3c75 04bf e7e6 09bf fc91 8dbe
00000090: f7d4 40bf f828 ebbe bdb9 09bf 62e7 00bf
000000a0: deb4 b8be 64ae 11bf c8a9 52bf ea58 10bf
000000b0: 180e 1abf f221 6abf a785 0bbf 3cad 73be
000000c0: 3093 23bf ff72 85bf 1400 42bf 2c4f 28bf
000000d0: 711b acbe b116 d0be 37b9 31bf 3aab d7be
000000e0: 4ff5 13bf 59a8 eabe 451b 10bf 5dba babe
000000f0: c7c3 09bf 9520 16bf 6e12 48bf ad04 03bf

model.5.running_mean f4 [64]
-0.6830566 -0.8689471 0.29301193 -0.44046715 -0.25389227 -0.55418986 -0.69264907 -0.8135532
-0.18339953 -0.6867067 -0.89419454 -0.9377377 -0.71771014 0.16152617 -0.93674934 -0.772375
-0.6310451 -0.5444262 -0.21459621 -0.6706712 -0.46069434 -0.9686663 -0.09543643 0.2055331
-0.34321746 -0.74294114 -0.6848773 -0.3626206 0.027636832 -0.34702203 -0.40588692 -0.7893261
-0.17893738 -0.11257922 -0.2403965 -0.34451178 -0.8631637 -0.43464404 -0.61064833 -0.5368821
-0.48875028 -0.0560373 0.27542463 -0.74855226 -0.8002001 -0.95944154 -0.56494385 -0.20818485
-0.8943902 0.47113937 -0.78562814 -0.0023552114 -0.43576825 -0.4962769 -0.8210491 -0.5481912
-0.611752 -0.51298153 -0.8824887 -0.6727628 0.062413946 -0.63266575 -1.0390216 -0.5712233
00000000: ccdc 2ebf 5173 5ebf a905 963e e984 e1be
00000010: 2bfe 81be 63df 0dbf 7351 31bf 0645 50bf
00000020: 16cd 3bbe 03cc 2fbf efe9 64bf 940f 70bf
00000030: dabb 37bf 1e67 253e cece 6fbf 5eba 45bf
00000040: 2c8c 21bf 845f 0bbf 1cbf 5bbe 1cb1 2bbf
00000050: 21e0 ebbe 84fa 77bf 2d74 c3bd 4577 523e
00000060: 33ba afbe 6431 3ebf 1e54 2fbf 68a9 b9be
00000070: a366 e23c dfac b1be 69d0 cfbe 4611 4abf
00000080: 5c3b 37be ef8f e6bd 802a 76be d963 b0be
00000090: 4cf8 5cbf aa89 debe 7353 1cbf 1b71 09bf
000000a0: 7a3d fabe 5e87 65bd 7504 8d3e 1fa1 3fbf
000000b0: ead9 4cbf f69d 75bf 29a0 10bf 692e 55be
000000c0: c2f6 64bf 2e39 f13e ed1e 49bf e459 1abb
000000d0: 041d dfbe 0118 febe 4630 52bf 4256 0cbf
000000e0: c79b 1cbf c252 03bf c8ea 61bf 2f3a 2cbf
000000f0: c4a5 7f3d 62f6 21bf a9fe 84bf b13b 12bf

model.5.running_var f4 [64]
0.7447808 0.86582035 0.17844965 0.6520609 0.9229713 1.1038635 0.6256614 1.2162386
0.77668005 1.1067882 2.1802523 1.1189753 1.4281164 0.5582089 1.669947 1.9085625
0.8958283 1.0153437 0.23831423 1.3145423 0.675139 1.4694433 0.6705252 0.15823682
0.77196187 1.0850435 0.43663386 1.0437865 0.40928158 0.91080105 0.65586096 1.297083
0.42775723 0.26379234 0.6773339 0.6062998 1.0205215 0.56797916 0.7596357 0.69477326
0.88026357 0.73150676 0.27841446 1.4434955 1.1678927 0.93804306 0.6610149 0.6468062
1.6265595 0.38436514 0.8032604 0.35906404 0.7027715 1.096279 1.0339636 0.9728628
0.6506539 0.84522647 2.0634987 1.7986194 0.3351267 0.74210954 1.3421482 0.68170166
00000000: f4a9 3e3f 67a6 5d3f 81bb 363e 77ed 263f
00000010: d947 6c3f 664b 8d3f 582b 203f b5ad 9b3f
00000020: 81d4 463f 3cab 8d3f 4189 0b40 953a 8f3f
00000030: 85cc b63f c7e6 0e3f d3c0 d53f c74b f43f
00000040: 0155 653f c8f6 813f a508 743e ec42 a83f
00000050: e9d5 2c3f b816 bc3f 8aa7 2b3f d508 223e
00000060: 4b9f 453f b5e2 8a3f 798e df3e cc9a 853f
00000070: 5b8d d13e 422a 693f 81e6 273f d106 a63f
00000080: ff02 db3e ca0f 873e c165 2d3f 7736 1b3f
00000090: 73a0 823f 1567 113f 7c77 423f a9dc 313f
000000a0: f458 613f 0744 3b3f 578c 8e3e 76c4 b83f
000000b0: 827d 953f 9723 703f 4638 293f 1795 253f
000000c0: 1a33 d03f 82cb c43e 79a2 4d3f 3ed7 b73e
000000d0: d5e8 333f df52 8c3f eb58 843f 890d 793f
000000e0: 4191 263f c360 583f 5d10 0440 2939 e63f
000000f0: ba95 ab3e e4fa 3d3f 83cb ab3f 0084 2e3f

model.8.weight f4 [32, 64]
-0.23662443 -0.11704226 -0.1571013 -0.0737236 0.039568078 -0.17404151 -0.19856873 0.1690934
-0.07693068 -0.21780191 -0.30310458 0.07316305 0.2852927 0.09939122 0.22646649 -0.20380588
0.0126021225 -0.10805036 -0.080037504 -0.3299779 0.07197466 -0.16451068 -0.008138557 -0.28325063
-0.10831735 -0.078221925 0.14432095 -0.09241428 -0.24110186 -0.06438871 -0.020824501 -0.25577432
-0.07819331 -0.004607958 0.13783184 0.007974532 -0.22157222 0.04751913 -0.20085244 -0.07002326
-0.07528191 -0.053887937 -0.25407696 -0.21555275 0.019027553 0.25269917 -0.08988968 -0.02923388
-0.2570339 -0.29189408 0.28038576 -0.18147351 -0.07811453 -0.07235583 -0.23760644 -0.16314316
-0.07870039 -0.2116063 -0.17281199 -0.12490142 -0.13560808 0.14892128 -0.22349663 0.16674627
0.09914495 0.28653878 0.1747312 -0.0085834 -0.08106574 0.036882292 0.106127396 -0.19765182
-0.012712151 0.036541063 0.17359222 -0.30443627 -0.0007125726 0.031256717 -0.115919486 -0.034970414
-0.25464603 -0.0043078265 0.14794207 0.0751994 -0.20221236 0.08732853 0.018054085 0.06453198
-0.0075146058 0.10781418 -0.17879269 0.036463957 0.14552334 0.010304133 0.030161578 0.13380902
0.059178293 -0.015864875 -0.23918489 -0.109554484 0.1343595 -0.13373564 0.01039548 0.10567582
0.09370845 0.05073441 0.07659585 0.05590934 -0.26018414 -0.20518662 0.14692266 -0.036449153
0.13780876 0.10545262 -0.22399521 0.041546687 -0.14855812 0.08180564 0.12063947 0.040755086
0.011002836 0.06563527 0.13260117 0.028732436 0.032105513 -0.2619546 0.16148122 -0.02109438
0.062111605 0.20215267 0.09610813 0.009463952 -0.016772436 0.14788385 -0.006252973 -0.053942498
0.0027563444 0.026401728 0.05458037 -0.2515258 -0.086710066 -0.0068910685 -0.20817691 0.009410529
-0.05929414 0.09508947 0.14502582 0.1319181 -0.10789967 0.018480884 -0.014034908 -0.029344773
0.014359419 0.2579402 -0.12227358 -0.057270877 0.20564067 0.0001880418 -0.03636199 0.11779978
0.18421048 -0.002862466 -0.18675882 -0.035632133 0.009259235 -0.06561497 -0.055961505 0.1722843
0.036485534 0.1225902 0.22238283 0.037728164 -0.12450208 -0.19897532 0.057015803 -0.03072388
0.27988786 0.12837346 -0.24292465 0.014343604 -0.041544043 0.12934224 0.1460753 0.03489862
0.03537124 -0.01281884 0.011520344 -0.025118042 0.010438725 -0.15637371 0.07143679 -0.006543709
0.08968245 0.10722367 0.12039005 0.0037725335 -0.21498369 0.08771508 0.18429811 -0.059708223
0.0031570978 0.06676386 0.08172528 -0.36915255 -0.050874192 -0.08713708 -0.16711977 0.040704213
-0.08009524 0.007516071 0.008255753 0.16675301 -0.09365364 0.08656057 0.010274052 -0.048162527
0.017019955 0.13059142 -0.17402248 -0.034693155 0.010348254 0.02380347 0.04297016 0.081566036
0.0068973415 -0.035003386 -0.14326204 -0.14940824 0.14150314 -0.16744389 0.012207624 0.03928665
0.17284492 0.024993697 -0.06849299 0.1085089 -0.07731456 -0.23865274 0.17122836 -0.17594928
0.1868446 0.03835223 -0.28107235 0.026047317 -0.21294348 0.09864629 0.16427359 -0.0031964646
-0.03667101 0.04071626 0.1794645 -0.021797102 0.069399275 -0.04929943 0.22587739 -0.146788
00000000: ad4d 72be dab3 efbd 2adf 20be 66fc 96bd
00000010: 2312 223d f037 32be 9a55 4bbe d226 2d3e
00000020: d58d 9dbd 7707 5fbe 8630 9bbe 82d6 953d
00000030: e311 923e a08d cb3d d5e6 673e 7db2 50be
00000040: 2279 4e3c 8249 ddbd b4ea a3bd ddf2 a8be
00000050: 7367 933d 7d75 28be 9557 05bc 3a06 91be
00000060: 7dd5 ddbd d132 a0bd dfc8 133e b343 bdbd
00000070: 68e3 76be 3ade 83bd 2598 aabc daf4 82be
00000080: d023 a0bd 5afe 96bb ca23 0d3e 9da7 023c
00000090: d4e3 62be 6ba3 423d 43ac 4dbe 5b68 8fbd
000000a0: 672d 9abd 99b9 5cbd 6016 82be dcb9 5cbe
000000b0: acdf 9b3c c961 813e 1518 b8bd e47b efbc
000000c0: f399 83be 2473 95be b98e 8f3e 31d4 39be
000000d0: 83fa 9fbd 4b2f 94bd 1a4f 73be 000f 27be
000000e0: ac2d a1bd 52af 58be a0f5 30be 51cc ffbd
000000f0: d8dc 0abe d27e 183e 4ddc 64be 89bf 2a3e
00000100: 820c cb3d 36b5 923e bcec 323e 64a1 0cbc
00000110: cb05 a6bd e311 173d 5259 d93d 3d65 4abe
00000120: a046 50bc 15ac 153d 29c2 313e 12df 9bbe
00000130: f0cb 3aba 0b07 003d 3267 edbd 233d 0fbd
00000140: f760 82be ab28 8dbb 207e 173e 2502 9a3d
00000150: c210 4fbe 4dd9 b23d 29e6 933c 5829 843d
00000160: 153d f6bb aecd dc3d 6e15 37be 3b5b 153d
00000170: 1204 153e abd2 283c 6a15 f73c 3b05 093e
00000180: f064 723d 0ef7 81bc e2ec 74be 1a5e e0bd
00000190: 8995 093e fff1 08be ce51 2a3c 906c d83d
000001a0: 37ea bf3d e2ce 4f3d 49de 9c3d 3101 653d
000001b0: db36 85be 711c 52be e572 163e b54b 15bd
000001c0: bd1d 0d3e 8bf7 d73d 005f 65be dc2c 2a3d
000001d0: 9f1f 18be b789 a73d d411 f73d ceee 263d
000001e0: 3d45 343c c96b 863d 9ac8 073e 4960 eb3c
000001f0: 1281 033d ea1e 86be 555b 253e 1fce acbc
00000200: bd68 7e3d 1c01 4f3e 57d4 c43d b10e 1b3c
00000210: 5966 89bc dd6e 173e bde5 ccbb cff2 5cbd
00000220: c9a3 343b 7048 d83c ab8f 5f3d fdc7 80be
00000230: 0c95 b1bd 79ce e1bb 542c 55be 9f2e 1a3c
00000240: 6ade 72bd 45be c23d a681 143e 8a15 073e
00000250: 81fa dcbd 3965 973c acf2 65bc 7364 f0bc
00000260: c543 6b3c bd10 843e 926a fabd de94 6abd
00000270: 7893 523e 162d 4539 4ff0 14bd 0341 f13d
00000280: aca1 3c3e 3698 3bbb b43d 3fbe 00f3 11bd
00000290: 0cb4 173c 2461 86bd e437 65bd 4c6b 303e
000002a0: db71 153d 9210 fb3d 53b8 633e d988 1a3d
000002b0: f2fa febd 30c0 4bbe 6789 693d a5b0 fbbc
000002c0: 764d 8f3e 5574 033e 3dc1 78be 7001 6b3c
000002d0: 162a 2abd 4b72 043e c394 153e dbf1 0e3d
000002e0: 6fe1 103d 1d06 52bc d3bf 3c3c 5ac4 cdbc
000002f0: 3007 2b3c 6e20 20be 744d 923d 9c6c d6bb
00000300: 6fab b73d 1598 db3d 0f8f f63d 9c3c 773b
00000310: af24 5cbe f7a3 b33d a5b8 3c3e 9c90 74bd
00000320: 50e7 4e3b 7ebb 883d 955f a73d 9001 bdbe
00000330: 7561 50bd ed74 b2bd 7221 2bbe 76b9 263d
00000340: f908 a4bd 6049 f63b 2343 073c 4dc1 2a3e
00000350: 7bcd bfbd ab46 b13d 7f54 283c 1246 45bd
00000360: 6f6d 8b3c c2b9 053e f332 32be 691a 0ebd
00000370: b98b 293c 7fff c23c 7a01 303d 180c a73d
00000380: 1803 e23b b65f 0fbd 49b3 12be 79fe 18be
00000390: 33e6 103e 6976 2bbe 7c02 483c 0aeb 203d
000003a0: 42fe 303e 95bf cc3c 0e46 8cbd ea39 de3d
000003b0: 1957 9ebd 6261 74be 7d56 2f3e 0c2c 34be
000003c0: 3154 3f3e 3a17 1d3d b7e8 8fbe 2f61 d53c
000003d0: db0d 5abe 1107 ca3d 5637 283e c77b 51bb
000003e0: 5734 16bd 18c6 263d 8bc5 373e d68f b2bc
000003f0: 3521 8e3d 33ee 49bd 674c 673e 984f 16be

model.8.bias f4 [32]
0.119107984 -0.05414646 -0.061805096 0.023992745 0.10540697 -0.055433903 0.060469266 -0.0053629507
0.0030475517 0.050683737 -0.03986512 0.039257355 0.11438352 0.009433572 -0.0049030557 0.038679402
0.03199948 -0.028121872 -0.04432769 -0.016136892 0.08534918 0.07348862 0.09983208 0.11292992
-0.07518105 -0.023409247 -0.048683576 0.02279677 0.08028819 -0.006841388 -0.04936331 -0.025139825
00000000: e3ee f33d aec8 5dbd 5727 7dbd 6f8c c43c
00000010: 9cdf d73d a90e 63bd 9fae 773d b1bb afbb
00000020: 6fb9 473b c099 4f3d 9c49 23bd 52cc 203d
00000030: e841 ea3d 458f 1a3c d0a9 a0bb 4b6e 1e3d
00000040: e311 033d d75f e6bc f490 35bd 8431 84bc
00000050: 8dcb ae3d 3481 963d c374 cc3d cd47 e73d
00000060: 86f8 99bd c0c4 bfbc 6e68 47bd 4bc0 ba3c
00000070: 226e a43d b92d e0bb 2f31 4abd 09f2 cdbc

model.9.weight f4 [32]
1.173434 0.96255624 0.9693541 0.9397619 1.017405 1.1060535 0.86262214 1.0013916
1.0772651 0.8482933 1.0231532 1.0041009 1.0575676 1.0201555 0.9079561 1.096467
0.9092635 1.115613 0.9064217 0.8538482 0.8834217 1.0899541 0.88809484 1.1599922
0.8947753 0.8428061 0.9588892 0.9778448 1.0628539 0.9115436 0.8326506 0.8347732
00000000: 1633 963f 166a 763f 9727 783f 3c94 703f
00000010: 543a 823f 2993 8d3f ced4 5c3f 9a2d 803f
00000020: d3e3 893f c029 593f aff6 823f 6186 803f
00000030: 605e 873f 7594 823f d06f 683f 0859 8c3f
00000040: 7ec5 683f 68cc 8e3f 410b 683f cc95 5a3f
00000050: ed27 623f 9e83 8b3f 2f5a 633f a07a 943f
00000060: fe0f 653f 24c2 573f c379 753f 0954 7a3f
00000070: 990b 883f ec5a 693f 9728 553f b2b3 553f

model.9.bias f4 [32]
-0.5202611 0.048839517 0.23622462 -0.06909178 0.19969124 -0.5139663 0.07864697 -0.48398778
-0.4617488 0.03731042 -0.5483493 0.09769052 -0.43377614 0.05688768 0.115966104 -0.3191195
-0.2497157 -0.49277845 -0.22268268 -0.017123183 0.040393792 -0.47447976 -0.25279903 -0.4842801
0.20938385 -0.26736838 0.11888475 -0.043982193 -0.51185465 -0.09459509 -0.16025934 -0.32304078
00000000: d52f 05bf f20b 483d dee4 713e fe7f 8dbd
00000010: dc7b 4c3e 4c93 03bf aa11 a13d 3fcd f7be
00000020: 576a ecbe d0d2 183d 9f60 0cbf f811 c83d
00000030: e817 debe 0e03 693d a37f ed3d a263 a3be
00000040: 79b5 7fbe 754d fcbe ee06 64be eb45 8cbc
00000050: f673 253d 03ef f2be e06e 81be 90f3 f7be
00000060: b868 563e 82e4 88be d979 f33d ac26 34bd
00000070: e808 03bf 12bb c1bd 061b 24be 9a65 a5be

model.9.running_mean f4 [32]
-0.42509755 -0.022265144 0.07031441 -0.03930541 0.20792198 -0.54568446 0.10703722 -0.48147777
-0.4848071 0.03503762 -0.73267645 0.03652915 -0.29977462 0.036918614 0.0733577 -0.18652353
-0.16792017 -0.44950327 -0.24002907 -0.018734325 0.0872157 -0.30301663 -0.10426012 -0.26049462
0.049733497 -0.21822427 -0.0039394153 -0.049285594 -0.54535323 -0.11481682 -0.25871482 -0.3440379
00000000: 63a6 d9be 6465 b6bc 0001 903d b6fe 20bd
00000010: 80e9 543e fab1 0bbf 5436 db3d 4184 f6be
00000020: a338 f8be 9c83 0f3d af90 3bbf 979f 153d
00000030: 0f7c 99be f937 173d 903c 963d 0600 3fbe
00000040: 44f3 2bbe 4b25 e6be 2eca 75be ba78 99bc
00000050: 259e b23d ff24 9bbe 5486 d5bd 8d5f 85be
00000060: 5ab5 4b3d 2f76 5fbe 3616 81bb b1df 49bd
00000070: 459c 0bbf 1525 ebbd 4576 84be bc25 b0be

model.9.running_var f4 [32]
1.1551903 0.5489818 0.38558808 0.48180574 0.50807685 0.7435127 0.4961118 0.6537548
0.88406354 0.3815092 1.2159439 0.3770386 0.71855617 0.45951116 0.64141434 0.42872936
0.4242295 0.67329425 0.3977754 0.4174078 0.41186893 0.5808693 0.36259195 0.5870021
0.51519346 0.31386504 0.6034353 0.39638245 1.1590048 0.44172946 0.44081718 0.30006304
00000000: 47dd 933f 128a 0c3f cd6b c53e 3eaf f63e
00000010: 5311 023f d956 3e3f 5e02 fe3e 795c 273f
00000020: fd51 623f 2d55 c33e 0da4 9b3f 340b c13e
00000030: 4cf3 373f 0c45 eb3e bb33 243f 6a82 db3e
00000040: 9c34 d93e 035d 2c3f 38a9 cb3e 7ab6 d53e
00000050: 7ce0 d23e dab3 143f a7a5 b93e c545 163f
00000060: b8e3 033f ebb2 a03e bc7a 1a3f a4f2 ca3e
00000070: 455a 943f 5d2a e23e cab2 e13e dda1 993e
