models/ann_model.pth (torch, 70268 bytes, 26 tensors)

model.0.weight f4 [128, 22]
-0.008768418 -0.43770504 0.01986224 -0.21633038 0.024597578 -0.60495174 0.46512726 0.013183768
-0.022835946 0.28007126 0.145383 0.010032775 -0.68222207 0.1470582 0.054783437 0.24150808
0.16417566 0.114289 -0.462518 0.09604761 -0.010927449 -0.029443458 -0.01706997 0.2625031
0.018924082 0.3671492 0.023095755 0.015539597 1.0064807 -0.0380733 0.16086963 -0.12959042
-0.0069304095 -0.09873827 0.053254914 -0.029935509 0.031975985 -0.05509536 0.011022071 0.06880226
0.18543251 -0.05597899 -0.0030707235 -0.015580161 0.024054267 -0.23263139 -0.13701174 -0.4648185
0.09644592 0.08276617 9.259479e-05 -0.025567435 0.0027270906 0.07697976 0.06591857 -0.11325023
0.042329744 -0.17787904 -0.019372392 0.01741989 1.3399574 0.025922181 -0.0103791235 0.05407386
0.08255274 -0.06865223 -0.042008568 0.14923088 -0.016766874 0.49147275 0.010888067 -0.27903062
-0.36970124 -0.04887626 0.013907297 -0.07785746 0.18204749 0.19275215 -0.076791145 0.10870613
0.08509158 0.12402237 -0.13779737 0.091856316 0.23726547 -0.18143177 -0.3331531 0.1473038
-0.37087193 0.65130347 0.8080293 -0.28243682 0.2542031 -0.050611876 0.043227438 -0.105845414
-0.042784065 -0.027553538 0.09726394 0.3991575 -0.07074255 -0.66260135 -0.020958422 0.17359416
-0.09648733 0.011418643 0.08062972 0.17705643 0.20665269 -0.1418432 0.027256694 0.26133528
0.04160002 0.21824062 -0.097011626 -0.012574441 1.0713814 0.023584906 0.01962145 0.040913884
0.0013872412 -0.0054804133 0.014101715 -0.002318363 0.011891733 0.04758236 -0.058790375 0.07103699
-0.037670307 -0.010205673 0.017505666 -0.0032640207 -0.011467535 0.09618205 0.005979 0.083956435
-0.035958946 0.028068695 -1.2358986 0.0052888873 -0.21101509 0.029876394 0.0066907564 -0.03817248
-0.060966615 0.06219645 0.039359454 -0.04343127 -0.04179246 -0.0132883405 0.0010226065 0.015731208
-0.04173228 0.035531834 -0.10384936 0.3480841 0.20250396 0.037465207 0.1632544 0.28687894
-0.842442 -0.042584967 0.048538025 0.15315542 -0.04448839 -0.18071467 -0.055275057 0.10855273
-0.10668592 -0.20933487 -0.031916052 -0.16233307 0.008402569 -0.0277435 -0.35734364 0.39266634
0.019095251 -0.16692138 -0.06324519 -0.55025095 0.02481604 -0.0639415 0.14898606 -0.013203959
0.040154163 -0.02691199 0.087969206 -0.17147121 -0.15301788 -0.21440768 -0.0045493576 -0.02314844
1.235376 -0.14383936 -0.25732514 0.2862195 -0.020883903 -0.059096098 -0.010302855 -0.6123748
-0.011802657 -0.40130746 -0.41737542 0.014137677 -0.53313047 0.049680073 -0.05755263 -0.0014597857
-0.01999902 -0.08179026 0.03758316 0.55294204 -0.043832824 0.0022528807 0.08156322 -0.020723287
-0.038427036 -0.013367404 0.10184532 -0.2321142 -0.0933561 -0.4711599 0.016160483 -0.5555467
0.0075074597 0.005801878 0.22221212 -0.12584913 0.0010828432 0.1264566 -0.088450775 0.06268198
-0.21013227 -0.018870708 0.0066550598 -0.025922073 -0.031140417 1.2219809 -0.01803372 -0.045296837
-0.31847447 0.21907437 0.046442818 -0.23378712 -0.002903782 -0.14559466 -0.18897663 -0.035965525
0.42863613 -0.051034357 0.115772426 -0.045793913 -0.04486722 0.25672987 0.051781017 -0.3013105
00000000: 69a9 0fbc e01a e0be 23b6 a23c b685 5dbe
00000010: dc80 c93c 1ede 1abf 2925 ee3e bb00 583c
00000020: 7312 bbbc 8065 8f3e 48df 143e 8260 243c
00000030: 1ba6 2ebf 6d96 163e 9964 603d e54d 773e
00000040: aa1d 283e 5a10 ea3d 29cf ecbe 9cb4 c43d
00000050: 0b09 33bc 6833 f1bc 52d6 8bbc ce66 863e
00000060: ad06 9b3c fbfa bb3e 4f33 bd3c cb99 7e3c
00000070: 5cd4 803f c0f2 1bbd 02bb 243e 5ab3 04be
00000080: 7d18 e3bb 4a37 cabd d321 5a3d 503b f5bc
00000090: 40f9 023d acab 61bd eb95 343c 33e8 8c3d
000000a0: 05e2 3d3e 3a4a 65bd 313e 49bb ee43 7fbc
000000b0: 740d c53c ec36 6ebe ce4c 0cbe b1fc edbe
000000c0: 7085 c53d 4f81 a93d 732f c238 cc72 d1bc
000000d0: fdb8 323b 90a7 9d3d 5100 873d bdef e7bd
000000e0: f461 2d3d ec25 36be dab2 9ebc 28b4 8e3c
000000f0: b983 ab3f c15a d43c 330d 2abc 8d7c 5d3d
00000100: 6911 a93d 8a99 8cbd 2d11 2cbd fbcf 183e
00000110: af5a 89bc 51a2 fb3e dd63 323c 1add 8ebe
00000120: 7b49 bdbe 7932 48bd 6edb 633c bb73 9fbd
00000130: a86a 3a3e d260 453e ad44 9dbd 52a1 de3d
00000140: 7f44 ae3d 71ff fd3d c11a 0dbe 2a1f bc3d
00000150: b8f5 723e 40c9 39be 0b93 aabe cfd6 163e
00000160: ede2 bdbe d3bb 263f 02db 4e3f 8f9b 90be
00000170: e926 823e 664e 4fbd 410f 313d 7bc5 d8bd
00000180: 583e 2fbd f5b7 e1bc 5132 c73d 5f5e cc3e
00000190: 78e1 90bd 3ea0 29bf ffb0 abbc abc2 313e
000001a0: 269b c5bd 4315 3b3c 3221 a53d 484e 353e
000001b0: c39c 533e 583f 11be 6e49 df3c bdcd 853e
000001c0: c864 2a3d 787a 5f3e 08ae c6bd 0705 4ebc
000001d0: 0723 893f 2235 c13c 2abd a03c 5195 273d
000001e0: 17d4 b53a 0a95 b3bb e10a 673c adef 17bb
000001f0: 8bd5 423c b9e5 423d 2dce 70bd d77b 913d
00000200: 2e4c 1abd b235 27bc 0b68 8f3c 2ee9 55bb
00000210: 54e2 3bbc 18fb c43d 7deb c33b 5af1 ab3d
00000220: b049 13bd 52f0 e53c ed31 9ebf 674e ad3b
00000230: 5714 58be 57bf f43c 223e db3b bf5a 1cbd
00000240: 21b8 79bd b4c1 7e3d 6137 213d fde4 31bd
00000250: 922e 2bbd 57b7 59bc fb08 863a bcde 803c
00000260: 78ef 2abd d489 113d f9ae d4bd 1438 b23e
00000270: 335d 4f3e 1e75 193d 292c 273e cce1 923e
00000280: 47aa 57bf 936d 2ebd cfcf 463d c6d4 1c3e
00000290: 7539 36bd 440d 39be 1968 62bd e550 de3d
000002a0: 267e dabd e15b 56be 68ba 02bd a43a 26be
000002b0: eeaa 093c 5646 e3bc bff5 b6be 900b c93e
000002c0: a56d 9c3c 70ed 2abe b286 81bd 3fdd 0cbf
000002d0: 024b cb3c c3f3 82bd cd8f 183e 6b55 58bc
000002e0: b178 243d 8976 dcbc 3329 b43d 2696 2fbe
000002f0: b8b0 1cbe b08d 5bbe c712 95bb cca1 bdbc
00000300: cd20 9e3f a04a 13be 1fc0 83be 5d8b 923e
00000310: b814 abbc c00e 72bd 4ecd 28bc 98c4 1cbf
00000320: ee5f 41bc 2c78 cdbe 3bb2 d5be b7a1 673c
00000330: 3d7b 08bf 557d 4b3d 4ebc 6bbd 4856 bfba
00000340: fcd4 a3bc a781 a7bd cdf0 193d 9c8d 0d3f
00000350: 0c8a 33bd 11a5 133b 9e0a a73d e2c3 a9bc
00000360: ab65 1dbd f502 5bbc 4794 d03d 58af 6dbe
00000370: 7c31 bfbd df3b f1be fd62 843c 4f38 0ebf
00000380: 2301 f63b ae1d be3b 938b 633e 98de 00be
00000390: 30ee 8d3a d77d 013e ae25 b5bd 695f 803d
000003a0: ea2c 57be be96 9abc b012 da3b 875a d4bc
000003b0: 301a ffbc df69 9c3f 74bb 93bc 2d89 39bd
000003c0: 160f a3be 0855 603e d33a 3e3d e465 6fbe
000003d0: 614d 3ebb c416 15be 1783 41be 9650 13bd
000003e0: 3276 db3e 6709 51bd 181a ed3d 6692 3bbd
000003f0: b1c6 37bd 1972 833e 5518 543d 5f45 9abe

model.0.bias f4 [128]
-0.1505522 0.017094972 0.10117284 0.18165298 0.13271093 -0.17003283 0.18941262 -0.17472261
0.12777328 -0.12346467 -0.13340594 0.1868596 -0.14284763 -0.14438283 -0.07476049 -0.082459874
-0.03001233 -0.03255445 -0.11083404 0.09472613 0.10917394 0.15048927 0.08146281 0.013587072
-0.18462738 -0.11939725 0.10329494 0.031160593 0.062407836 0.13016863 -0.13122845 -0.20822127
-0.19841856 -0.08023348 -0.044166077 0.052061234 -0.048343558 -0.031327385 0.13887252 -0.10198411
-0.10728861 0.18492033 0.04096059 0.20250304 -0.098812625 -0.13409032 -0.06354067 0.015728755
-0.20583954 0.035795674 0.1202669 -0.033513412 0.064246915 0.089122206 0.15272182 0.058376104
0.047251835 -0.050589386 -0.20195594 -0.161667 0.03320955 -0.038642544 -0.16631149 0.047079507
-0.07000569 0.13662222 -0.09963645 0.03582746 -0.18186857 -0.12867154 0.20546101 0.012206399
0.12343699 -0.057978906 -0.15137888 0.1803972 -0.13289216 0.14706317 0.14539334 0.04404527
0.10461238 0.15782876 -0.012412838 -0.15261744 0.21611528 -0.15935862 0.13266163 0.059468802
0.02060939 0.19738267 -0.15508617 0.10672154 -0.12149474 -0.03348924 -0.07590699 0.20677905
-0.16374503 -0.13747826 0.03518654 0.09789088 0.17619042 -0.051055357 0.059953056 -0.15417665
-0.12895972 0.11581228 -0.20011331 0.19078828 0.07474015 -0.06751948 -0.08563389 -0.16777128
0.0332265 0.1136464 -0.05057766 -0.14865805 0.06626346 -0.02335893 0.074691005 -0.06812274
0.00091164745 -0.09812927 0.027465688 0.13066325 0.20802589 -0.013377793 0.004430713 0.035309028
00000000: 5b2a 1abe c10a 8c3c b533 cf3d 3d03 3a3e
00000010: 60e5 073e 161d 2ebe 62f5 413e 7cea 32be
00000020: 00d7 023e 0bdb fcbd 919b 08be 1f58 3f3e
00000030: a646 12be 18d9 13be 071c 99bd b9e0 a8bd
00000040: 6bdc f5bc d157 05bd f5fc e2bd c6ff c13d
00000050: 9696 df3d dc19 1a3e f9d5 a63d 4f9c 5e3c
00000060: f60e 3dbe 8c86 f4bd 4c8c d33d 8044 ff3c
00000070: 5c9f 7f3d ed4a 053e c060 06be f537 55be
00000080: 3c2e 4bbe 7351 a4bd 7de7 34bd 293e 553d
00000090: e503 46bd 2551 00bd 9934 0e3e 0cdd d0bd
000000a0: 21ba dbbd c15b 3d3e 4bc6 273d f55c 4f3e
000000b0: 465e cabd f94e 09be 9c21 82bd 97d9 803c
000000c0: 9ac7 52be 7c9e 123d 7e4e f63d 5c45 09bd
000000d0: e393 833d b485 b63d 1c63 1c3e c81b 6f3d
000000e0: 248b 413d d136 4fbd 8acd 4ebe 098c 25be
000000f0: bd06 083d a547 1ebd 8f4d 2abe 71d6 403d
00000100: 255f 8fbd b2e6 0b3e 320e ccbd d1bf 123d
00000110: c13b 3abe 79c2 03be 5f64 523e 59fd 473c
00000120: 88cc fc3d 4a7b 6dbd 1103 1bbe 0bba 383e
00000130: e214 08be ba97 163e fee1 143e d068 343d
00000140: 043f d63d dd9d 213e 375f 4bbc bf47 1cbe
00000150: 534d 5d3e e82e 23be 73d8 073e 8f95 733d
00000160: 06d5 a83c af1e 4a3e e9ce 1ebe d390 da3d
00000170: 3cd2 f8bd 032c 09bd 2075 9bbd e3bd 533e
00000180: c7ac 27be 1ac7 0cbe c31f 103d 047b c83d
00000190: 436b 343e 6c1f 51bd 5691 753d 7ce0 1dbe
000001a0: 040e 04be fd2e ed3d 81ea 4cbe 015e 433e
000001b0: 5d11 993d a747 8abd d260 afbd 3ccc 2bbe
000001c0: 8318 083d 72bf e83d 852a 4fbd d139 18be
000001d0: 23b5 873d 3a5b bfbc 99f7 983d ef83 8bbd
000001e0: a0fb 6e3a 00f8 c8bd b9ff e03c 96cc 053e
000001f0: bd04 553e 882e 5bbc 842f 913b 33a0 103d

model.1.weight f4 [128]
0.5204371 0.8555606 0.9124234 0.6891656 0.51644087 0.8698422 0.91938794 0.7161511
0.82440376 0.84681576 0.80062944 0.6389841 0.8829091 0.5896394 0.79430133 0.5723602
0.86148477 0.6632456 0.7463386 0.76412004 0.6683357 0.5193932 0.6097341 0.8983378
0.81561613 0.5924108 0.7870015 0.7777787 0.9262583 0.6753293 0.8726032 0.6654441
0.8599457 0.60258436 1.0330405 0.69831675 0.9287822 0.46859 0.56159914 0.9555866
0.867447 0.7768646 0.6079285 0.6642617 0.5161035 0.69342947 0.7611606 0.47447723
0.54851943 0.9747627 0.6826482 0.65482754 1.0006117 0.9011817 0.6445505 0.69238424
0.86533993 0.57552123 0.6873574 0.8070399 0.81580013 0.5952838 0.63095635 0.7496678
0.475783 0.70671934 0.3329595 0.6632832 0.74421495 0.85298723 0.919541 0.67273945
0.83873236 0.6675315 0.63542914 0.6311291 0.79771113 0.5991746 0.5195124 0.7203935
0.9460036 0.7507445 0.62147975 0.7629107 1.1995788 0.76125276 1.1006528 0.8404179
0.30707827 0.73843193 0.7635296 0.9145045 0.86797684 0.8319514 0.94127584 0.7904167
0.48170108 0.8050374 0.548838 1.1200037 0.81626713 0.96689934 0.8041548 0.905631
0.707717 0.81741565 0.6901008 0.9627111 0.65079635 0.6095753 0.7415223 0.78132963
0.7144833 1.1232836 0.49568695 0.7354985 0.626287 0.5847271 0.6505133 0.71123666
0.52936786 0.7995456 0.8201469 0.96143955 0.60930264 1.0318822 0.9420037 0.8328211
00000000: 5e3b 053f 0506 5b3f 9494 693f 286d 303f
00000010: 7835 043f faad 5e3f 025d 6b3f ae55 373f
00000020: 200c 533f ebc8 583f 0df6 4c3f 7694 233f
00000030: 5506 623f 9cf2 163f 5557 4b3f 3386 123f
00000040: 448a 5c3f 77ca 293f 0c10 3f3f 5f9d 433f
00000050: 0c18 2b3f f4f6 043f 8917 1c3f 77f9 653f
00000060: 38cc 503f 3ca8 173f ee78 493f 811c 473f
00000070: 441f 6d3f 62e2 2c3f ec62 5f3f 8b5a 2a3f
00000080: 6725 5c3f f842 1a3f ac3a 843f e3c4 323f
00000090: acc4 6d3f 07eb ef3e f6c4 0f3f 53a1 743f
000000a0: 0211 5e3f 99e0 463f 34a1 1b3f 0e0d 2a3f
000000b0: 5c1f 043f 9884 313f 6cdb 423f aeee f23e
000000c0: c56b 0c3f 0c8a 793f 08c2 2e3f c7a2 273f
000000d0: 0b14 803f d8b3 663f 4301 253f 1840 313f
000000e0: eb86 5d3f 5c55 133f a8f6 2f3f 2b9a 4e3f
000000f0: 47d8 503f 8564 183f 5b86 213f 3bea 3f3f
00000100: d499 f33e 8feb 343f ab79 aa3e eecc 293f
00000110: df84 3e3f 5f5d 5a3f 0a67 6b3f a738 2c3f
00000120: 2ab7 563f 58e3 2a3f 7cab 223f ad91 213f
00000130: cc36 4c3f 8263 193f c4fe 043f b56b 383f
00000140: 4b2d 723f cb30 403f 4c19 1f3f 1e4e 433f
00000150: cc8b 993f 76e1 423f 31e2 8c3f a125 573f
00000160: 5d39 9d3e e009 3d3f ad76 433f f81c 6a3f
00000170: bb33 5e3f c4fa 543f 74f7 703f c058 4a3f
00000180: 86a1 f63e ee16 4e3f a680 0c3f 485c 8f3f
00000190: e2f6 503f b786 773f 17dd 4d3f 6fd7 673f
000001a0: f12c 353f 2742 513f 72aa 303f 3c74 763f
000001b0: 979a 263f 200d 1c3f 68d4 3d3f 3805 483f
000001c0: 61e8 363f c2c7 8f3f aeca fd3e a149 3c3f
000001d0: 5854 203f adb0 153f 0a88 263f 9b13 363f
000001e0: a784 073f 05af 4c3f 26f5 513f e720 763f
000001f0: 42fb 1b3f b714 843f 2827 713f c333 553f

model.1.bias f4 [128]
-0.72951055 -0.9276747 -1.0529925 -0.413727 -0.7109667 -1.1179566 -1.5092705 -0.8387342
-0.97134256 -0.57203525 -1.0278273 -0.54383963 -0.6245027 -0.6309638 -0.38149014 -0.75727963
-0.8904882 -0.81494904 -0.8895747 -0.88064814 -0.83772784 -0.70760864 -0.36852458 -1.4659171
-1.1291605 -0.63234186 -0.9370835 -0.8189751 -0.8594803 -0.60193986 -0.91644204 -0.46306658
-0.89837646 -0.28888816 -1.0001013 -0.77001405 -0.52741075 -0.28297696 -0.39942986 -0.365744
-0.59424764 -0.88922465 -0.8060136 -0.7486575 -0.5761176 -0.7606858 -0.5020448 -0.4720516
-0.31796727 -0.5106164 -0.79021734 -0.5523474 -0.4735243 -0.3447885 -0.7731408 -0.94128585
-0.50997555 -1.016056 -0.9771178 -0.21884517 -0.94466066 -0.64670163 -0.7952007 -0.8929141
-0.4020501 -1.2627158 -0.29488766 -0.7854106 -0.47619575 -0.4232182 -1.5524249 -0.33339936
-0.79928255 -0.91292727 -0.85832816 -0.7292791 -0.27310202 -0.42706954 -0.63852954 -0.62811404
-0.86369294 -0.78516984 -0.8743872 -0.8400205 -1.3503649 -0.4562579 -1.1968474 -1.1599716
-0.17119183 -0.7991932 -0.92972225 -1.1123447 -1.2316984 -0.40526348 -0.43251222 -0.9883913
-0.562987 -0.736909 -0.1643532 -1.0413512 -0.8230035 -0.8919785 -0.44345504 -1.5453426
-0.6851815 -0.4684924 -0.85918456 -0.6776636 -0.8117263 -0.8057001 -0.96695846 -0.43269297
-0.44927967 -1.0125427 -0.5642709 -0.8108204 -0.7954937 -0.8733503 -0.6428039 -0.98486185
-0.839756 -0.6876228 -0.6872679 -0.50834435 -0.5552202 -0.36562946 -0.3013101 -1.4016892
00000000: 34c1 3abf 177c 6dbf 75c8 86bf 06d4 d3be
00000010: ea01 36bf 3419 8fbf c72f c1bf 49b7 56bf
00000020: e8a9 78bf e770 12bf d88f 83bf 1339 0bbf
00000030: 69df 1fbf d886 21bf ad52 c3be 14dd 41bf
00000040: 09f7 63bf 80a0 50bf 2bbb 63bf 2872 61bf
00000050: 5575 56bf d725 35bf 41af bcbe 2ca3 bbbf
00000060: 5588 90bf 28e1 21bf b4e4 6fbf 5aa8 51bf
00000070: e706 5cbf bb18 1abf f29b 6abf 1017 edbe
00000080: 00fc 65bf 26e9 93be 5203 80bf a41f 45bf
00000090: 6404 07bf 5be2 90be 1282 ccbe cc42 bbbe
000000a0: 9d20 18bf 3aa4 63bf e856 4ebf 05a8 3fbf
000000b0: 717c 13bf 4ebc 42bf 0286 00bf bfb0 f1be
000000c0: 9bcc a2be c2b7 02bf af4b 4abf a466 0dbf
000000d0: c771 f2be 1e88 b0be 8eec 45bf 1cf8 70bf
000000e0: c28d 02bf 1f0e 82bf 6424 7abf f318 60be
000000f0: 48d5 71bf 3d8e 25bf 4692 4bbf 0596 64bf
00000100: 83d9 cdbe aca0 a1bf 84fb 96be ab10 49bf
00000110: eecf f3be 0eb0 d8be dcb5 c6bf 52b3 aabe
00000120: c89d 4cbf 9ab5 69bf 65bb 5bbf 09b2 3abf
00000130: 07d4 8bbe dca8 dabe ac76 23bf 15cc 20bf
00000140: fb1a 5dbf e400 49bf d7d7 5fbf 950b 57bf
00000150: c2d8 acbf a39a e9be 4c32 99bf f379 94bf
00000160: e94c 2fbe ed97 4cbf 4702 6ebf 5061 8ebf
00000170: 4ba8 9dbf b27e cfbe 3e72 ddbe 3607 7dbf
00000180: eb1f 10bf 11a6 3cbf 354c 28be ff4a 85bf
00000190: 5bb0 52bf b458 64bf 8a0c e3be c9cd c5bf
000001a0: 0e68 2fbf 3cde efbe 85f3 5bbf 5d7b 2dbf
000001b0: 4bcd 4fbf 5d42 4ebf 978a 77bf ef89 ddbe
000001c0: fc07 e6be 009b 81bf 0f74 10bf ed91 4fbf
000001d0: 7aa5 4bbf e393 5fbf cc8e 24bf e81f 7cbf
000001e0: 40fa 56bf 0c08 30bf caf0 2fbf db22 02bf
000001f0: e922 0ebf c933 bbbe 5145 9abe 8d6a b3bf

model.1.running_mean f4 [128]
-0.1490813 0.017472891 0.10413302 0.18327132 0.13349725 -0.17005138 0.18912789 -0.17675667
0.13016869 -0.1221769 -0.1341817 0.18710902 -0.14126775 -0.1414275 -0.070555925 -0.08337469
-0.028632887 -0.035657555 -0.10813035 0.096443266 0.10829566 0.15028256 0.08100406 0.013689874
-0.18491769 -0.12222346 0.10714087 0.034192324 0.06362545 0.13209529 -0.13109456 -0.2056282
-0.19772992 -0.078190334 -0.04264157 0.053558044 -0.046092566 -0.029561067 0.14047219 -0.10134413
-0.10615854 0.18379833 0.03920794 0.20262444 -0.09981297 -0.13238643 -0.064015225 0.01566022
-0.20583253 0.038622946 0.12140545 -0.032170936 0.06393886 0.088231474 0.15309727 0.058912396
0.04922884 -0.05198042 -0.19924708 -0.16134274 0.033755586 -0.04219856 -0.16741017 0.048740055
-0.07065958 0.1362402 -0.09855096 0.039374784 -0.18113981 -0.12398319 0.20550047 0.011650885
0.12443855 -0.057139646 -0.1493878 0.18046448 -0.13235635 0.14886826 0.14454187 0.043233886
0.10429685 0.15702368 -0.01241208 -0.15247703 0.21702589 -0.16087078 0.13324633 0.059764635
0.019866735 0.19743823 -0.15612513 0.107578956 -0.12136546 -0.034112427 -0.071487054 0.20682515
-0.16362107 -0.13519512 0.03585392 0.09716526 0.17970665 -0.049101 0.06147264 -0.15427278
-0.12809321 0.11708357 -0.19901673 0.19186638 0.074282095 -0.068804674 -0.08734071 -0.16661395
0.03428475 0.11396814 -0.054437667 -0.14718312 0.06659905 -0.027214663 0.07934124 -0.0681253
-0.0010752995 -0.09851874 0.02991025 0.13335288 0.20885597 -0.013229861 0.005360832 0.03521493
00000000: c5a8 18be 4f23 8f3c b143 d53d 7aab 3b3e
00000010: 81b3 083e f321 2ebe beaa 413e b3ff 34be
00000020: f14a 053e e237 fabd ed66 09be 8299 3f3e
00000030: 7ea8 10be 5fd2 10be a07f 90bd 59c0 aabd
00000040: 848f eabc a80d 12bd 7273 ddbd 0c84 c53d
00000050: 1dca dd3d ace3 193e 75e5 a53d 7e4b 603c
00000060: 105b 3dbe 4b50 fabd ac6c db3d 400d 0c3d
00000070: 0f4e 823d fd43 073e a73d 06be 3390 52be
00000080: b679 4abe 4122 a0bd eda8 2ebd ae5f 5b3d
00000090: 8fcb 3cbd 0d2a f2bc f1d7 0f3e 838d cfbd
000000a0: a669 d9bd a135 3c3e 8198 203d c87c 4f3e
000000b0: be6a ccbd 4f90 07be 6a1a 83bd dd49 803c
000000c0: c3c5 52be 1833 1e3d 6ca3 f83d acc5 03bd
000000d0: 61f2 823d b4b2 b43d 88c5 1c3e 204e 713d
000000e0: 2ea4 493d 6ce9 54bd 6d07 4cbe 0837 25be
000000f0: 4c43 0a3d 66d8 2cbd 926d 2bbe a7a3 473d
00000100: f8b5 90bd 8d82 0b3e 16d5 c9bd 7447 213d
00000110: b77c 39be e6ea fdbd b76e 523e 5be3 3e3c
00000120: a3d9 fe3d 430b 6abd 1ef9 18be aecb 383e
00000130: 6c88 07be ec70 183e c902 143e 0416 313d
00000140: 9699 d53d d1ca 203e 095c 4bbc f022 1cbe
00000150: 093c 5e3e 4fbb 24be ba71 083e c3cb 743d
00000160: 90bf a23c 3f2d 4a3e 44df 1fbe 5b52 dc3d
00000170: 748e f8bd 79b9 0bbd ce67 92bd f9c9 533e
00000180: 488c 27be 9770 0abe 8fdb 123d 94fe c63d
00000190: 0505 383e 211e 49bd bcca 7b3d aff9 1dbe
000001a0: de2a 03be 83c9 ef3d 0bcb 4bbe 9f78 443e
000001b0: 3621 983d 77e9 8cbd b0df b2bd d99c 2abe
000001c0: 2b6e 0c3d 2168 e93d 08fa 5ebd 2cb7 16be
000001d0: 1565 883d 49f1 debc a97d a23d 4785 8bbd
000001e0: 10f1 8cba 31c4 c9bd 5706 f53c a88d 083e
000001f0: 57de 553e 0fc2 58bc eba9 af3b 883d 103d

model.1.running_var f4 [128]
1.1455837 1.2054211 1.799541 0.61308074 1.5048575 1.2497272 1.9729686 1.2018796
1.3281666 1.4288284 1.8910211 0.7216667 1.966321 1.3952487 3.2186327 1.1373144
1.2670164 1.6341866 0.75736296 0.78384686 1.0479101 0.7830551 1.4659498 1.8176647
1.0802714 1.4187163 1.8000337 1.8561927 1.4119849 0.69599706 0.969769 1.8969903
1.1170357 1.47563 3.0573566 1.4369298 2.249697 1.2773864 2.6017957 0.7825886
1.3080419 1.8361834 1.0628924 0.73965836 1.3520292 2.6623063 0.7730876 1.8928734
1.1888604 3.5989153 0.94242245 2.5389345 1.1922213 1.5064638 1.2164304 1.3233452
2.1192873 0.53442484 1.8635206 1.1846462 0.6625451 1.9327298 2.1685321 0.714452
2.4939847 1.2653899 1.2907246 1.7725979 1.1575671 3.2530224 3.3940182 1.8217584
1.4489547 1.8050869 0.946077 1.8563697 0.64059407 1.7041333 1.1219928 1.637411
2.275821 2.4552882 3.2684777 1.0053978 3.1171703 1.7284213 3.0058565 1.4127545
1.3004831 1.1373904 1.6725205 0.99540573 2.1145582 1.2974807 3.4184926 1.5792726
1.3753651 1.6468943 0.9124814 1.3662523 2.050339 1.6036415 1.5651157 2.2960494
1.4960994 1.9714956 1.8884141 3.3784516 1.3285625 0.8374045 1.0289801 1.361759
1.170419 1.6783453 1.9491395 1.8105599 1.792669 2.159031 1.5435332 1.2689687
0.72789454 3.01492 2.0715678 2.172026 1.2526393 1.2729695 1.1876045 2.5220358
00000000: 7da2 923f 3d4b 9a3f 5c57 e63f dcf2 1c3f
00000010: 2c9f c03f 10f7 9f3f 3c8a fc3f 31d7 993f
00000020: 5d01 aa3f d9e3 b63f fb0c f23f 26bf 383f
00000030: 68b0 fb3f 8297 b23f 14fe 4d40 8593 913f
00000040: 982d a23f 072d d13f 8ae2 413f 30aa 483f
00000050: eb21 863f 4d76 483f 3ea4 bb3f 3da9 e83f
00000060: 5546 8a3f 7f98 b53f 8167 e63f b997 ed3f
00000070: ecbb b43f dd2c 323f c842 783f 94d0 f23f
00000080: 07fb 8e3f 72e1 bc3f bbab 4340 51ed b73f
00000090: 09fb 0f40 6681 a33f d283 2640 ba57 483f
000000a0: eb6d a73f 0f08 eb3f dc0c 883f 405a 3d3f
000000b0: 4b0f ad3f 3a63 2a40 12e9 453f ad49 f23f
000000c0: 942c 983f a154 6640 9942 713f e77d 2240
000000d0: b59a 983f ced3 c03f feb3 9b3f 6063 a93f
000000e0: 67a2 0740 11d0 083f d887 ee3f 7da2 973f
000000f0: 8e9c 293f b163 f73f 3bc9 0a40 54e6 363f
00000100: 729d 1f40 4cf8 a13f 7736 a53f 7de4 e23f
00000110: 292b 943f 8531 5040 9837 5940 612f e93f
00000120: 5977 b93f 160d e73f 1a32 723f 869d ed3f
00000130: f9fd 233f 0a21 da3f 769d 8f3f af96 d13f
00000140: 0da7 1140 7123 1d40 bd2e 5140 e0b0 803f
00000150: b87f 4740 e93c dd3f f45f 4040 24d5 b43f
00000160: 3b76 a63f 0296 913f 2715 d63f e9d2 7e3f
00000170: ec54 0740 d913 a63f 95c8 5a40 9b25 ca3f
00000180: f70b b03f 6fcd d23f 6298 693f 5be1 ae3f
00000190: c138 0340 2044 cd3f b655 c83f 79f2 1240
000001a0: 2f80 bf3f f859 fc3f 8eb7 f13f 8d38 5840
000001b0: 560e aa3f 2460 563f 9fb5 833f 1e4e ae3f
000001c0: 4ad0 953f 05d4 d63f 677d f93f 6dc0 e73f
000001d0: 2e76 e53f 902d 0a40 7f92 c53f 916d a23f
000001e0: 4c57 3a3f 73f4 4040 9194 0440 7902 0b40
000001f0: 7c56 a03f aaf0 a23f 6d03 983f 0969 2140

model.4.weight f4 [64, 128]
0.029409196 0.24271046 -0.3676643 0.011274268 -0.008839556 0.24564405 0.3158254 0.18306844
-0.3430409 0.09823375 -0.3153179 0.009311921 -0.22374377 0.07574184 -0.116494186 -0.18588178
-0.3056011 -0.08415795 -0.041651107 -0.055715885 0.14302093 0.112539224 0.26542127 0.29595158
0.5854615 -0.031015111 -0.18942545 -0.019225301 0.022828812 -0.09579444 0.079374194 0.22083506
0.034203686 0.06620274 -0.2931432 -0.0018683744 0.113141075 -0.063216336 0.023683103 -0.04051793
-0.12349503 -0.046733312 -0.13900933 -0.11787357 -0.095138706 0.09947249 -0.046538558 0.09716531
0.027206581 -0.048657876 -0.10220152 0.044415213 0.16870211 -0.1223245 0.07200725 -0.1705103
-0.12476065 -0.19810715 -0.10962983 -0.0778355 -0.092112556 0.041443072 0.05851223 -0.081414364
-0.05408051 -0.010058458 0.27114812 -0.41932285 -0.16174829 -0.08128258 0.6551028 0.05199317
0.022069195 -0.020855218 0.033282474 -0.14544602 -0.038962748 0.14787781 -0.12910146 0.13545394
-0.5603786 0.34146225 0.04113159 0.14790353 -0.22302376 0.05880958 -0.5021747 0.14833094
-0.05861757 0.49645814 -0.009799182 0.11352589 0.12797686 0.13808145 -0.08171469 0.25913128
-0.032527596 0.19154276 -0.059556406 0.07927697 0.32384607 0.05310912 0.075888105 0.48840946
0.027746337 0.30115798 -0.15405479 -0.13254926 -0.2680435 0.12834978 0.31853595 0.21431471
0.056322724 0.08285972 0.10067183 0.09810396 0.12765911 0.029476019 -0.033089213 -0.082950674
0.15330814 -0.3521485 0.13757782 -0.010828815 0.09034585 0.19711322 -0.07475396 0.51775515
0.15761694 0.05635701 -0.21981408 0.16485192 -0.10097832 -0.09244827 -0.23108368 0.06849179
-0.12477646 -0.14149372 -0.18751454 -0.03096243 -0.087506235 0.0057824072 0.012271288 0.1294199
0.031983946 -0.04911533 -0.1981627 -0.35430634 0.16985722 -0.2341935 -0.109887674 -0.15086408
-0.08481802 -0.0018674928 -0.1240296 -0.36071157 -0.12871578 0.1104522 0.10707842 -0.27331084
-0.1664074 -0.073598474 -0.10077565 -0.23128465 -0.37578592 0.058981437 0.01147868 0.022376623
-0.14440122 -0.21576913 -0.040859163 0.15648787 0.0063823545 -0.15108813 0.14243722 0.034452494
-0.015361076 -0.7405523 0.07983093 0.10984082 0.059428528 -0.054962687 -0.30742207 -0.22871448
0.0031032609 0.057963308 0.03982961 0.099596284 -0.035933666 -0.033842534 0.092059724 -0.07595337
0.08507425 -0.0097914785 -0.109271064 -0.40713996 -0.027551424 -0.050762493 -0.0240811 -0.036584683
-0.20311096 0.027200352 -0.057542335 0.0076933103 -0.028730096 -0.039178062 -0.07749022 -0.074392706
-0.05764133 0.028618619 0.00794918 -0.08812924 -0.13906908 -0.106474794 0.037094537 -0.15766588
-0.044260412 -0.12785897 -0.33615103 -0.12093165 -0.46437332 0.013183139 -0.03433577 0.06583085
0.055258494 -0.3016155 -0.05928806 0.042630978 -0.39644465 -0.23520295 -0.11184253 -0.33341694
-0.006448063 0.03540388 0.13980551 -0.16207744 0.21492764 -0.21721432 -0.21929204 -0.19135508
0.07439912 -0.024049997 -0.12127299 -0.017140785 0.10558888 -0.02941271 0.16909018 0.0017213072
0.14215146 -0.15897654 -0.46868646 -0.08043764 -0.03712839 0.10432526 0.05352636 -0.5267518
00000000: 8eeb f03c 1789 783e 7f3e bcbe b5b7 383c
00000010: c9d3 10bc 1d8a 7b3e deb3 a13e 4b76 3b3e
00000020: 0fa3 afbe c72e c93d 5971 a1be 0791 183c
00000030: 161d 65be 8a1e 9b3d 8194 eebd cb57 3ebe
00000040: bf77 9cbe 015b acbd 5a9a 2abd 5736 64bd
00000050: 1474 123e f77a e63d 4ce5 873e f786 973e
00000060: cee0 153f 6713 febc bff8 41be 617e 9dbc
00000070: 7d03 bb3c e02f c4bd f08e a23d 9622 623e
00000080: 2a19 0c3d 4d95 873d de16 96be 3ee4 f4ba
00000090: 82b6 e73d 9177 81bd 1103 c23c 21f6 25bd
000000a0: f6ea fcbd 6e6b 3fbd 7658 0ebe b367 f1bd
000000b0: 15d8 c2bd 3cb8 cb3d 379f 3ebd 9bfe c63d
000000c0: 56e0 de3c 7b4d 47bd 084f d1bd baec 353d
000000d0: 3fc0 2c3e 4485 fabd 8978 933d 419a 2ebe
000000e0: 8382 ffbd 9adc 4abe 9b85 e0bd 3868 9fbd
000000f0: 82a5 bcbd 36c0 293d 85aa 6f3d 93bc a6bd
00000100: 8683 5dbd 3bcc 24bc edd3 8a3e 7cb1 d6be
00000110: 58a1 25be 7b77 a6bd d1b4 273f caf6 543d
00000120: 75ca b43c 90d8 aabc 3453 083d cdef 14be
00000130: 6797 1fbd 486d 173e 2c33 04be 70b4 0a3e
00000140: f974 0fbf 24d4 ae3e 9979 283d 0674 173e
00000150: 5760 64be 50e2 703d 858e 00bf 11e4 173e
00000160: fa18 70bd c32f fe3e c08c 20bc 4380 e83d
00000170: 5e0c 033e 3965 0d3e 085a a7bd dbac 843e
00000180: a83b 05bd c923 443e 6bf1 73bd f75b a23d
00000190: 27cf a53e f388 593d 396b 9b3d ce10 fa3e
000001a0: 494c e33c 6131 9a3e 8ac0 1dbe feba 07be
000001b0: ff3c 89be 206e 033e 2517 a33e 5175 5b3e
000001c0: a8b2 663d 5bb2 a93d 082d ce3d bbea c83d
000001d0: 12b9 023e b177 f13c 8e88 07bd 0be2 a9bd
000001e0: cffc 1c3e cf4c b4be 33e1 0c3e 586b 31bc
000001f0: 3f07 b93d 0cd8 493e 9b18 99bd 9a8b 043f
00000200: 5666 213e 9cd6 663d f116 61be f1ce 283e
00000210: b9cd cebd 8555 bdbd 33a1 6cbe 6c45 8c3d
00000220: cd8a ffbd bbe3 10be d003 40be eca4 fdbc
00000230: 7836 b3bd 597a bd3b 830d 493c a686 043e
00000240: 9901 033d 282d 49bd 2aeb 4abe a467 b5be
00000250: 0def 2d3e 6cd0 6fbe ca0c e1bd 1d7c 1abe
00000260: 12b5 adbd a9c6 f4ba 3b03 febd 30af b8be
00000270: 12ce 03be c334 e23d ee4b db3d 66ef 8bbe
00000280: b466 2abe ccba 96bd 7763 cebd e2d5 6cbe
00000290: 0367 c0be 8596 713d 1311 3c3c 2e4f b73c
000002a0: eadd 13be 95f2 5cbe f05b 27bd 5b3e 203e
000002b0: 1223 d13b d9b6 1abe 10db 113e 0f1e 0d3d
000002c0: 06ad 7bbc d694 3dbf 667e a33d 39f4 e03d
000002d0: 546b 733d 8e20 61bd 6d66 9dbe 2134 6abe
000002e0: 1460 4b3b ef6a 6d3d 6024 233d 23f9 cb3d
000002f0: 2e2f 13bd 789e 0abd cf89 bc3d 718d 9bbd
00000300: 693b ae3d 706c 20bc 82c9 dfbd a674 d0be
00000310: 86b3 e1bc 55ec 4fbd ba45 c5bc d2d9 15bd
00000320: 52fc 4fbe 46d3 de3c 83b1 6bbd 2a18 fc3b
00000330: 615b ebbc 2d79 20bd 31b3 9ebd 345b 98bd
00000340: 5119 6cbd 9871 ea3c 473d 023c 1a7d b4bd
00000350: 2068 0ebe 750f dabd 71f0 173d 2a73 21be
00000360: 684a 35bd 76ed 02be fd1b acbe 03ab f7bd
00000370: 57c2 edbe 18fe 573c aaa3 0cbd 53d2 863d
00000380: bb56 623d 596d 9abe 09d8 72bd d29d 2e3d
00000390: cbfa cabe 0bd9 70be b20d e5bd a0b5 aabe
000003a0: 464a d3bb a903 113d 2d29 0f3e a1f7 25be
000003b0: fe15 5c3e 6e6d 5ebe 188e 60be 96f2 43be
000003c0: 915e 983d 8004 c5bc f95d f8bd d56a 8cbc
000003d0: fc3e d83d ecf2 f0bc fa25 2d3e 7c9d e13a
000003e0: 2790 113e bfca 22be acf7 efbe 7dbc a4bd
000003f0: f013 18bd 7ba8 d53d 753e 5b3d 35d9 06bf

model.4.bias f4 [64]
-0.06515245 -0.029074436 -0.028933931 0.019042125 0.019850371 -0.015341338 -0.037820626 -0.031421136
0.009950693 0.041420076 0.03595232 0.09256868 -0.079954214 -0.088662334 -0.040778007 0.054296635
-0.089439094 0.03568769 0.017178109 0.03888141 0.01248035 0.01353071 -0.074009754 0.074493125
-0.054284405 0.060515787 0.07555759 0.016895428 0.036651082 0.026202582 -0.06352641 -0.05588643
0.05784824 -0.038725484 0.04330464 0.017717514 0.046446934 0.07078138 -0.047050197 0.041512873
0.08477701 0.050400592 0.06744605 -0.04011758 -0.008390373 0.04429835 0.040452108 -0.008658255
0.066494554 0.055040516 -0.04200695 0.057145514 -0.017980471 -0.024236811 -0.0043772026 0.023636548
-0.015730856 -0.008150982 -0.026559396 -0.058915485 -0.04268826 0.06703704 -0.023147145 0.08264234
00000000: a66e 85bd 832d eebc da06 edbc 3bfe 9b3c
00000010: 3f9d a23c 3c5a 7bbc cde9 1abd 73b3 00bd
00000020: 3b08 233c 19a8 293d bd42 133d a694 bd3d
00000030: 09bf a3bd 9994 b5bd d706 27bd 2666 5e3d
00000040: d82b b7bd 412d 123d 1bb9 8c3c 1d42 1f3d
00000050: 627a 4c3c e9af 5d3c 6d92 97bd da8f 983d
00000060: 5359 5ebd 67df 773d f0bd 9a3d 4868 8a3c
00000070: 721f 163d cca6 d63c 221a 82bd 2be9 64bd
00000080: 47f2 6c3d 9d9e 1ebd 3560 313d 5224 913c
00000090: 243f 3e3d d4f5 903d b5b7 40bd 6709 2a3d
000000a0: 929f ad3d da70 4e3d 2821 8a3d 5552 24bd
000000b0: c677 09bc 3072 353d 1cb1 253d 5bdb 0dbc
000000c0: 4c2e 883d 2a72 613d 7b0f 2cbd 6a11 6a3d
000000d0: c84b 93bc 478c c6bc a36e 8fbb 6fa1 c13c
000000e0: ffdd 80bc b28b 05bc 1793 d9bc 5d51 71bd
000000f0: e3d9 2ebd b74a 893d 159f bdbc 6340 a93d

model.5.weight f4 [64]
0.97530925 0.8105819 0.89465237 0.79600996 0.9771935 0.9722479 0.77055043 0.80303043
1.0867896 1.0791712 0.8934295 0.82638514 0.767384 0.7937678 1.0048136 0.9728561
0.9870915 0.99573934 0.9805895 0.8772895 0.66669834 0.97672087 0.86270875 0.98460287
0.92158526 0.8598707 0.9151947 0.80803883 0.816382 1.0176455 0.8256852 0.92552
0.73531884 0.80912095 0.9307185 0.61929834 0.73238236 0.9221257 0.63596135 0.851044
0.8884658 0.8931492 1.0670635 0.75135684 0.86120653 0.9652718 0.93617797 0.7506179
0.7891055 0.9682035 0.9158957 0.9617517 1.0324248 0.8081601 0.938823 0.945692
0.98622006 0.5335226 0.871059 0.66006607 0.8800631 0.8313072 0.873695 1.0315446
00000000: dead 793f 4c82 4f3f f007 653f 4fc7 4b3f
00000010: 5a29 7a3f 3de5 783f cb42 453f 6793 4d3f
00000020: ec1b 8b3f 4822 8a3f ccb7 643f fa8d 533f
00000030: 4773 443f 5e34 4b3f bb9d 803f 190d 793f
00000040: 07b2 7c3f c6e8 7e3f ea07 7b3f 0b96 603f
00000050: beac 2a3f 610a 7a3f 7bda 5c3f ef0e 7c3f
00000060: 03ed 6b3f 7c20 5c3f 334a 6a3f a2db 4e3f
00000070: 69fe 503f 3542 823f 1b60 533f e1ee 6c3f
00000080: db3d 3c3f 8d22 4f3f 9143 6e3f 568a 1e3f
00000090: 697d 3b3f 6e10 6c3f 5dce 223f 05de 593f
000000a0: 7f72 633f 6da5 643f 8995 883f ec58 403f
000000b0: 0878 5c3f 0d1c 773f 5ca9 6f3f 7f28 403f
000000c0: d102 4a3f 2fdc 773f 2478 6a3f 5c35 763f
000000d0: 7f26 843f 95e3 4e3f b456 703f df18 723f
000000e0: eb78 7c3f f094 083f b9fd 5e3f 17fa 283f
000000f0: d14b 613f 8cd0 543f 7aaa 5f3f a709 843f

model.5.bias f4 [64]
-0.92227644 -0.38813102 -0.59385043 -0.40210158 -0.57201886 -0.5026143 -0.5339775 -0.66836876
-0.65357435 -0.64021426 -0.6361062 -0.51605695 -0.5167921 -0.42965576 -0.6444174 -0.5732515
-0.67137885 -0.50722605 -0.86298645 -0.45368052 -0.4458857 -0.61772835 -0.50465983 -0.63023067
-0.56178623 -0.39814824 -0.8202834 -0.3357813 -0.41841474 -0.7182415 -0.556901 -0.5333135
-0.6459807 -0.57049066 -0.83739954 -0.37738368 -0.5996329 -0.9013102 -0.40732023 -0.41828004
-0.6408348 -0.7384896 -0.6936863 -0.40599263 -0.3002571 -0.48436022 -0.6342571 -0.5052323
-0.826455 -0.39140084 -0.5358797 -0.49123558 -0.71179473 -0.70452935 -0.6516924 -0.4564799
-0.55977696 -0.6024704 -0.6550718 -0.55685157 -0.5432635 -0.67208177 -0.6775827 -0.7652822
00000000: 4f1a 6cbf 1cb9 c6be 9506 18bf 42e0 cdbe
00000010: d46f 12bf 55ab 00bf c0b2 08bf 371a 2bbf
00000020: a650 27bf 15e5 23bf dbd7 22bf 4f1c 04bf
00000030: 7d4c 04bf d7fb dbbe 8af8 24bf 9cc0 12bf
00000040: 7cdf 2bbf 91d9 01bf aeec 5cbf d048 e8be
00000050: 214b e4be 7223 1ebf 6331 01bf cc56 21bf
00000060: 39d1 0fbf 16da cbbe 18fe 51bf 87eb abbe
00000070: 753a d6be adde 37bf 1091 0ebf 3c87 08bf
00000080: fe5e 25bf ad0b 12bf d15f 56bf 6f38 c1be
00000090: 8b81 19bf 44bc 66bf 478c d0be cd28 d6be
000000a0: c00d 24bf a80d 3dbf 6d95 31bf 44de cfbe
000000b0: 4cbb 99be 10fe f7be ac5e 22bf e756 01bf
000000c0: 8e92 53bf b165 c8be 692f 09bf 3b83 fbbe
000000d0: 2e38 36bf 095c 34bf 50d5 26bf bcb7 e9be
000000e0: 8b4d 0fbf 803b 1abf c9b2 27bf d38d 0ebf
000000f0: 5113 0bbf 8d0d 2cbf 0f76 2dbf 89e9 43bf

model.5.running_mean f4 [64]
0.058835514 -0.36868376 -0.8402591 -0.49907994 -0.646066 -0.4857948 -0.79120636 0.26069975
-0.4524331 -0.46299607 -0.7637743 -0.34889436 0.11972423 -0.54174864 -0.8765023 -0.5738955
-0.74077845 -0.3749653 -1.1010739 -0.21549943 -0.61436296 -0.81583095 -0.5383251 -0.42045593
-0.6300598 -0.4204883 -0.9665197 -0.22861612 -0.16891852 -0.6471419 -0.7468923 -0.5151524
-0.624515 -0.8005325 0.14005414 -0.20913236 -0.2837898 -0.57419556 -0.40425405 -0.37705356
-0.37272778 0.30753863 -0.6345503 -0.43322468 0.021384161 -0.34753528 -0.58664864 -0.30412945
0.3894781 -0.29804212 -0.7132669 -0.37149236 -0.8727521 0.28735155 -0.4854779 -0.39462695
-0.5941061 0.077760465 -0.48711568 -0.06980534 -0.602957 -0.50104445 -0.78860307 -0.9756844
00000000: 82fd 703d 1ec4 bcbe 381b 57bf 6887 ffbe
00000010: 9564 25bf 19ba f8be 808c 4abf 707a 853e
00000020: 50a5 e7be d20d edbe b686 43bf 48a2 b2be
00000030: fa31 f53d 0ab0 0abf 7462 60bf d1ea 12bf
00000040: a8a3 3dbf 74fb bfbe fdef 8cbf e2ab 5cbe
00000050: e446 1dbf 4cda 50bf accf 09bf 0046 d7be
00000060: 994b 21bf 3e4a d7be d66d 77bf 581a 6abe
00000070: faf8 2cbe 17ab 25bf 5534 3fbf 07e1 03bf
00000080: 37e0 1fbf b3ef 4cbf 5a6a 0f3e cb26 56be
00000090: e64c 91be 7bfe 12bf 63fa cebe 2a0d c1be
000000a0: 2dd6 bebe b475 9d3e e371 22bf a0cf ddbe
000000b0: d62d af3c 25f0 b1be 9b2e 16bf dbb6 9bbe
000000c0: ac69 c73e fa98 98be a998 36bf 3f34 bebe
000000d0: ae6c 5fbf be1f 933e 8f90 f8be 8b0c cabe
000000e0: 5617 18bf e140 9f3d 3a67 f9be 1af6 8ebd
000000f0: 645b 1abf 7344 00bf e4e1 49bf 74c6 79bf

model.5.running_var f4 [64]
0.31044048 0.36979476 1.292218 0.77009034 1.1254843 0.708413 1.2146533 0.16731502
0.54868656 0.65544933 1.2481643 0.4355565 0.14161982 0.6698708 1.5075318 0.9279596
0.79858893 0.57774144 1.4236903 0.2636094 0.81144506 1.5093819 0.5776477 0.52194464
0.7430664 0.9913939 1.2365178 0.35673717 0.18852778 0.74715763 0.87967974 0.534825
0.5860084 1.1222241 0.45979074 0.3000036 0.41346952 0.48878425 0.23792063 0.68502957
0.36037228 0.32788244 1.0192283 0.5818674 0.14362933 0.615377 0.66132486 0.26130664
0.40467447 0.6738568 1.3112237 0.60728896 1.5869492 0.17645559 0.40998048 0.7661833
0.83109176 0.122375526 0.3476919 0.0803367 0.8062754 0.4006185 0.82855177 2.1286979
00000000: 0ef2 9e3e bd55 bd3e 6667 a53f a424 453f
00000010: df0f 903f 8e5a 353f c279 9b3f a154 2b3e
00000020: b976 0c3f 87cb 273f d9c3 9f3f 4301 df3e
00000030: c904 113e a77c 2b3f cdf6 c03f c38e 6d3f
00000040: 5370 4c3f dde6 133f 7c3b b63f d0f7 863e
00000050: ddba 4f3f 6d33 c13f b8e0 133f 2a9e 053f
00000060: 9939 3e3f fecb 7d3f 3746 9e3f 41a6 b63e
00000070: 6d0d 413e b945 3f3f b132 613f 4bea 083f
00000080: a604 163f 0aa5 8f3f b169 eb3e 129a 993e
00000090: 47b2 d33e ee41 fa3e 77a1 733e 195e 2f3f
000000a0: b782 b83e 35e0 a73e 1376 823f 43f5 143f
000000b0: 9113 133e 5989 1d3f 964c 293f fcc9 853e
000000c0: 7e31 cf3e e181 2c3f 2ed6 a73f 4a77 1b3f
000000d0: 2721 cb3f c6b0 343e f6e8 d13e 9724 443f
000000e0: 6ec2 543f 05a0 fa3d ac04 b23e 9187 a43d
000000f0: 1168 4e3f de1d cd3e f81b 543f 963c 0840

model.8.weight f4 [32, 64]
-0.07634703 0.043358754 0.32267335 -0.022597356 0.22030553 -0.09528353 -0.22146519 -0.06900194
-0.11391864 0.08990928 -0.28136402 -0.008961582 -0.07819535 -0.17379574 0.29996002 0.18947431
0.14921056 -0.12897849 0.23863904 -0.07974238 -0.18241484 0.21553636 -0.14571208 -0.049277443
0.09587584 0.07137845 0.12082746 0.019326169 -0.14344615 0.05874516 -0.012405125 -0.1243593
-0.17976311 -0.20678385 -0.043425694 0.0405247 0.005643146 0.074965484 -0.010205888 -0.067101315
0.13838397 -0.1487588 0.24330705 -0.20737682 0.013812072 -0.14088963 0.10951852 -0.08515552
-0.12511228 -0.13182747 -0.21147554 -0.18538247 -0.26765913 -0.18155767 0.08126674 -0.16944242
-0.041707207 0.02308749 0.09926828 0.07712103 -0.23161091 0.10796131 0.08471231 -0.3325363
0.20227961 -0.03171846 0.0056133857 0.13393345 -0.23047763 -0.00857119 0.022175862 0.25705123
-0.18162416 0.008847505 -0.11219608 0.17078732 0.1661141 -0.11325128 0.010316984 -0.05938889
-0.025462897 -0.16894422 -0.3067931 0.0011977025 0.025598327 -0.33835682 0.06511294 0.19948816
0.0038084823 -0.22605215 -0.010043636 -0.030474516 0.044941917 -0.05523819 0.16391896 -0.11412426
0.07389614 -0.02181297 -0.03327228 -0.17354366 -0.0011830848 -0.0957719 0.13128714 0.15394197
0.062276114 0.22429645 -0.09925007 0.28054273 -0.02248581 -0.032483652 -0.1619965 -0.023810482
0.24932785 0.040410332 0.0949599 -0.104294084 -0.028287465 -0.06654074 -0.10186567 -0.013160915
0.0884302 -0.02244393 -0.14421175 -0.11363551 0.20285077 -0.06865596 -0.25432238 0.24488097
-0.075150914 0.025104716 0.40215898 -0.006249538 0.21236902 -0.15635282 -0.18522437 -0.093457095
-0.16228268 0.13193339 -0.26841792 -0.032573707 -0.101158805 -0.09516465 0.1359591 0.12224037
0.1128287 -0.10115082 0.2291793 -0.08376567 -0.17290188 0.38271376 -0.069712535 -0.173921
0.12444392 -0.12005108 0.00093262905 0.02631601 -0.11033217 0.10171771 0.010791209 -0.18306743
-0.26902425 -0.13539222 -0.06724396 0.0781768 -0.009911009 0.17331532 -0.029893804 -0.10065993
0.1627916 -0.09971802 0.18434201 -0.10531929 0.04789803 -0.075786 0.14823481 -0.08683393
-0.1495556 -0.17644857 -0.067204475 -0.15103278 -0.14694588 -0.16727166 0.16742788 -0.12717955
0.056728087 0.038093034 0.13276972 0.075940065 -0.13938594 0.15231901 0.088468745 -0.09741292
0.053064063 -0.12584585 -0.23946032 0.010406653 -0.27416041 0.070668794 -0.07821075 -0.14528981
0.11481586 -0.22008705 0.041454043 -0.0532564 0.18512619 0.019754937 -0.12436409 -0.15662183
-0.22656131 0.17772307 -0.29670408 0.0023758246 -0.14998996 -0.22413477 0.049299233 0.032351162
-0.10959101 0.059255596 -0.5023795 -0.17122442 0.025858946 -0.18469326 0.17483358 0.12186447
-0.05055876 0.04702897 -0.15443037 -0.14853606 -0.042563166 -0.35976523 0.08081888 -0.016875312
-0.20955712 -0.10791595 -0.09875726 -0.059645656 -0.14652267 0.12166399 -0.31070203 -0.13938105
0.11950506 -0.03726157 0.010427625 0.006973086 0.22325142 -0.038834944 -0.30376273 0.034398243
0.03385293 -0.101385936 -0.14295067 -0.031791594 -0.07337178 -0.33896807 -0.20958419 -0.004785763
00000000: d55b 9cbd f398 313d 7135 a53e 171e b9bc
00000010: c697 613e 0324 c3bd c5c7 62be e450 8dbd
00000020: 2d4e e9bd 5b22 b83d f20e 90be 99d3 12bc
00000030: e224 a0bd 83f7 31be 5c94 993e 8e05 423e
00000040: a7ca 183e f012 04be cb5d 743e f94f a3bd
00000050: f5ca 3abe 90b5 5c3e 8c35 15be 25d7 49bd
00000060: 8d5a c43d dd2e 923d 6374 f73d ea51 9e3c
00000070: 8ce3 12be c49e 703d de3e 4bbc 17b0 febd
00000080: d213 38be 25bf 53be 24df 31bd 3afd 253d
00000090: 24ea b83b 8187 993d 9936 27bc 6a6c 89bd
000000a0: 87b4 0d3e 3a54 18be 7c25 793e 975a 54be
000000b0: 074c 623c 5f45 10be 3f4b e03d 0466 aebd
000000c0: 6f1d 00be c8fd 06be 0b8d 58be e7d4 3dbe
000000d0: 9e0a 89be 41ea 39be 2d6f a63d 5082 2dbe
000000e0: 2dd5 2abd fa21 bd3c 2b4d cb3d a1f1 9d3d
000000f0: 692b 6dbe d21a dd3d a67d ad3d 3342 aabe
00000100: 6322 4f3e 37eb 01bd 7ef0 b73b da25 093e
00000110: 5402 6cbe 2d6e 0cbc 27aa b53c 389c 833e
00000120: affb 39be 20f5 103c 0fc7 e5bd dfe2 2e3e
00000130: d119 2a3e 49f0 e7bd 9108 293c c441 73bd
00000140: 9197 d0bc b7ff 2cbe fc13 9dbe 3afc 9c3a
00000150: 95b3 d13c 1b3d adbe ef59 853d a046 4c3e
00000160: bb97 793b 377a 67be 108e 24bc b1a5 f9bc
00000170: 0415 383d 7141 62bd 5fda 273e fbb9 e9bd
00000180: dc56 973d 1db1 b2bc 8448 08bd 6eb5 31be
00000190: bd11 9bba 0f24 c4bd 2370 063e f7a2 1d3e
000001a0: 3d15 7f3d f8ad 653e 9f43 cbbd 4ca3 8f3e
000001b0: 2934 b8bc 940d 05bd 69e2 25be 330e c3bc
000001c0: cd4f 7f3e 4e85 253d 567a c23d 2398 d5bd
000001d0: 1dbb e7bc 8346 88bd f39e d0bd e1a0 57bc
000001e0: e51a b53d 55dc b7bc 3fac 13be bcb9 e8bd
000001f0: 1db8 4f3e 7f9b 8cbd 8b36 82be 14c2 7a3e
00000200: b9e8 99bd 68a8 cd3c c8e7 cd3e edc8 ccbb
00000210: 4477 593e f41a 20be 75ab 3dbe 6f66 bfbd
00000220: 6e2d 26be 8c19 073e 136e 89be 026c 05bd
00000230: 592c cfbd afe5 c2bd dd38 0b3e 2959 fa3d
00000240: bc12 e73d 2928 cfbd faad 6a3e 568d abbd
00000250: 310d 31be 0ff3 c33e 72c5 8ebd 5918 32be
00000260: 74dc fe3d 57dd f5bd ad7b 743a ac94 d73c
00000270: d5f5 e1bd 6051 d03d 9ccd 303c 0776 3bbe
00000280: 8cbd 89be 42a4 0abe 34b7 89bd 281b a03d
00000290: c961 22bc 9279 313e dae3 f4bc cb26 cebd
000002a0: d7b2 263e f638 ccbd 27c4 3c3e a4b1 d7bd
000002b0: ba30 443d b135 9bbd deca 173e fdd5 b1bd
000002c0: 1a25 19be efae 34be 80a2 89bd 56a8 1abe
000002d0: fb78 16be 4349 2bbe 3772 2b3e 5b3b 02be
000002e0: b65b 683d 7107 1c3d c9f4 073e 7786 9b3d
000002f0: 30bb 0ebe 84f9 1b3e 1a2f b53d 6d80 c7bd
00000300: b459 593d bcdd 00be 1635 75be ab80 2a3c
00000310: c15e 8cbe cdba 903d f52c a0bd dac6 14be
00000320: 9424 eb3d 805e 61be b7cb 293d 6223 5abd
00000330: b891 3d3e 1bd5 a13c 9ab2 febd 7961 20be
00000340: b0ff 67be 09fd 353e 99e9 97be b9b3 1b3b
00000350: f896 19be 9683 65be feed 493d a782 043d
00000360: 4071 e0bd ffb5 723d f19b 00bf 7455 2fbe
00000370: 24d6 d33c 3b20 3dbe 9307 333e 1494 f93d
00000380: b416 4fbd 73a1 403d ff22 1ebe d619 18be
00000390: b756 2ebd 2633 b8be 5e84 a53d 183e 8abc
000003a0: 2496 56be 0a03 ddbd 3f41 cabd 014f 74bd
000003b0: 0a0a 16be f82a f93d 5614 9fbe e8b9 0ebe
000003c0: 12bf f43d 979f 18bd a1d8 2a3c 7c7e e43b
000003d0: 059c 643e 6411 1fbd ca86 9bbe 2ce5 0c3d
000003e0: 5fa9 0a3d 6ea3 cfbd a961 12be e737 02bd
000003f0: f243 96bd 398d adbe 3d9d 56be e4d1 9cbb

model.8.bias f4 [32]
0.04410367 0.009224022 0.027987067 -0.028190153 -0.0753563 -0.069813885 0.034038108 0.028156968
-0.12721306 -0.05325312 0.0896318 0.10646682 -0.017460536 -0.08239972 0.0039952537 -0.013927843
0.008923971 -0.026380494 -0.03504085 -0.032029785 0.06126527 0.02021556 -0.026520718 0.113073856
0.08542124 -0.026022438 -0.046747234 -0.08428065 -0.032221776 0.047094993 -0.015470492 0.043085266
00000000: 0da6 343d 5a20 173c 2245 e53c 09ef e6bc
00000010: 6754 9abd 95fa 8ebd 8b6b 0b3d 71a9 e63c
00000020: 2444 02be f21f 5abd e190 b73d 470b da3d
00000030: 6609 8fbc 2fc1 a8bd 9eea 823b 9c31 64bc
00000040: d935 123c e81b d8bc ff86 0fbd aa31 03bd
00000050: 4bf1 7a3d 1a9b a53c fa41 d9bc 4493 e73d
00000060: 55f1 ae3d 022d d5bc 077a 3fbd 559b acbd
00000070: fbfa 03bd aee6 403d f277 7dbc 2d7a 303d

model.9.weight f4 [32]
1.0043373 0.7850752 1.092071 0.95310724 1.0165111 0.9644624 1.0495573 0.94875455
0.94524395 1.0505431 0.9871603 1.0671622 0.9162568 0.9911483 1.0077975 1.0005156
0.9423197 0.87695205 0.94041723 1.1486386 1.1828121 1.0731893 0.97708076 0.93279463
1.1429287 0.97605497 1.0671302 1.0282155 1.0280857 1.0843415 0.95562464 1.105906
00000000: 208e 803f b0fa 483f fcc8 8b3f d6fe 733f
00000010: 091d 823f 02e7 763f e557 863f 94e1 723f
00000020: 82fb 713f 3278 863f 8ab6 7c3f c598 883f
00000030: ce8f 6a3f e5bb 7d3f 82ff 803f e510 803f
00000040: dd3b 713f ee7f 603f 2fbf 703f 9706 933f
00000050: 6366 973f 445e 893f f721 7a3f a1cb 6e3f
00000060: 7d4b 923f bdde 793f b997 883f 919c 833f
00000070: 5098 833f b4cb 8a3f d1a3 743f 548e 8d3f

model.9.bias f4 [32]
-0.29797214 -0.051289313 -0.2750022 -0.3030174 -0.11209219 -0.028479144 -0.22729592 -0.32114118
-0.20911446 -0.05788052 -0.050504543 0.011335358 -0.21151745 -0.3881954 -0.23636423 -0.15830468
0.08004419 -0.1160122 0.12981679 -0.5958522 -0.54651195 -0.46644884 0.12608397 -0.17466652
-0.15576103 0.17224926 -0.28327787 -0.22415902 0.12544964 -0.44946063 -0.028554773 -0.0056413985
00000000: ce8f 98be be14 52bd 17cd 8cbe 1925 9bbe
00000010: 9790 e5bd 184d e9bc 43c0 68be 9e6c a4be
00000020: 1a22 56be 2014 6dbd dadd 4ebd f0b7 393c
00000030: 0898 58be 8cc1 c6be 7709 72be 9f1a 22be
00000040: 35ee a33d ce97 edbd b1ee 043e c589 18bf
00000050: 35e8 0bbf 62d2 eebe 281c 013e c8db 32be
00000060: d27f 1fbe 1c62 303e cc09 91be f189 65be
00000070: df75 003e b41f e6be b3eb e9bc 7bdb b8bb

model.9.running_mean f4 [32]
-0.1960143 0.023102697 -0.17950255 -0.256629 -0.17407212 -0.12251728 -0.104395896 -0.2342829
-0.34278005 -0.11018891 0.029570244 0.075547546 -0.22923246 -0.47294405 -0.22502716 -0.14513414
0.03737303 -0.17643717 0.03425712 -0.57614464 -0.44084835 -0.44898322 0.02540796 -0.027748268
-0.017426938 0.058781665 -0.27046907 -0.24801214 0.03348029 -0.36530006 -0.06931798 -0.014050084
00000000: f9b7 48be de41 bd3c 84cf 37be e064 83be
00000010: f63f 32be 57ea fabd 84cd d5bd dbe7 6fbe
00000020: de80 afbe b9aa e1bd 4c3d f23c acb8 9a3d
00000030: eabb 6abe b925 f2be 856d 66be 0b9e 14be
00000040: 7614 193d f2ab 34be 3251 0c3d 377e 13bf
00000050: e0b6 e1be 21e1 e5be 5b24 d03c 5650 e3bc
00000060: f0c2 8ebc 0bc5 703d ec7a 8abe e5f6 7dbe
00000070: a122 093d 9c08 bbbe 96f6 8dbd 5332 66bc

model.9.running_var f4 [32]
0.5126547 0.28111 0.5429864 0.34646147 0.39855647 0.45602396 0.4055074 0.3838743
0.45558545 0.33415195 0.32877383 0.2866516 0.4266835 0.73689187 0.6953103 0.4271135
0.35056877 0.3316996 0.5477862 0.90317905 0.90010625 0.9635248 0.31811923 0.31408343
0.517769 0.47264764 0.52731496 0.40206978 0.49637115 0.7568259 0.3307172 0.1406123
00000000: 573d 033f a6ed 8f3e 2801 0b3f 6663 b13e
00000010: 980f cc3e f97b e93e aa9e cf3e 2c8b c43e
00000020: 7f42 e93e f715 ab3e 0b55 a83e 00c4 923e
00000030: 4276 da3e f2a4 3c3f dbff 313f 9fae da3e
00000040: c07d b33e 88d4 a93e b73b 0c3f be36 673f
00000050: 5d6d 663f 90a9 763f 86e0 a23e 8bcf a03e
00000060: 828c 043f dffe f13e 1dfe 063f 17dc cd3e
00000070: 5c24 fe3e 58bf 413f c453 a93e acfc 0f3e
